model_2/gru_best.pth (torch, 602069 bytes, 9 tensors)

gru.weight_ih_l0 f4 [384, 1]
00000000: 7a1f 91bd 771c b4bd 4cb2 25be 5cc8 b83c
00000010: bc71 febd 4a09 123d fea2 f23c 2a78 5abd
00000020: 47a1 713d d96c eebc 1c4f 2dbd fcb5 e1bd
00000030: f84f 92bd c409 0cbe 7272 b1ba e42a 7fbc
00000040: cb25 8cbd 1c07 843b ae65 cdbd f16a 38bd
00000050: 9e4b 1d3d ed2c a7bd 257e f5bd 6892 fdbd
00000060: bb86 a13c cb72 393d 5720 463d 5510 583c
00000070: 799c 7cbb 0eb1 ba3d 0553 06be 16ee b6bc
00000080: ca7d 313d 0362 64bd 2081 0fbe bc32 71bd
00000090: 0022 523c 55eb 40bd c3d3 9cbd 1f06 e3bb
000000a0: 3d96 cabd a395 c1bd 87de 12bc f1c0 b0bd
000000b0: 5f9c 77bb 22b3 183d 4b72 e2bd 9685 03be
000000c0: 478e 45bd eef4 0d3d 3e42 c83c 2bbe 913c
000000d0: 8926 cd3c 1b6d 5b3d cecf 0fbd 6cda 7abc
000000e0: c83f 953d 24ab e93c 4894 00bd e005 6d3c
000000f0: c659 7fbd 4b22 d2bd 3a90 98bc 670f 553d
00000100: a21e 26bd 21d7 ce3d c6d3 183d 4b60 dcbd
00000110: 2699 3f3c 275a 91bd db04 903c 4332 f5bd
00000120: 7a6a cc3c 9fab 9cbd dbe5 07be 1fa4 2d3d
00000130: 4ce5 203d 045e 82bc 5cf7 14be 727a 2e3c
00000140: f703 34bd 98b3 36bd ac56 c43d 2871 723d
00000150: 13c2 ff3d 18b1 763d 5a7b 863a 0c3a 1ebd
00000160: e2d9 55bd 31fa 823d 2ea1 4a3d 1477 a8bd
00000170: 8dcd 6abd 124d d8bd 023d 853c 1013 8abd
00000180: 76d8 103d 3040 5cbd 5d78 6e3c 84cb 86bd
00000190: 517d 6aba e384 35bd c1af 073d 0739 9a3d
000001a0: bb9d a7bd c2de a4bb 9197 13be 453d 65bd
000001b0: b3fb a2bc 9d17 923d 1e48 923d 5fec 023e
000001c0: 5038 49bc 6807 adbc 3bee c1bd 7ee9 1cbd
000001d0: 3cfe 923d f4e3 e2bd f3dd 9ebc 5a06 a9bd
000001e0: 66f2 c8bd b37b b43d 8630 383d 50c0 fb3d
000001f0: f9da c2bd 3138 55bd 6bb7 31bc ad26 90bd
00000200: 9709 19be e5d8 77be 1a9c e93b fd9a 92be
00000210: faf0 b3be b2a1 43bd c428 a9be 535a 033e
00000220: 54bb 7fbe 054c 1dbe 896d 46be cc77 9dbe
00000230: ef4e a8be 8580 47be 3c2c 09be 1266 40be
00000240: da04 bfbe 7d60 c2be e341 9a3e 66f2 84be
00000250: 9393 3ebe b287 92be d1df 47be 1790 9cbe
00000260: 3d72 b93d 2ab6 01be 66d2 a6be 865d 8bbe
00000270: 0272 4abe 13d3 a4be 73fa b2be a57a 93be
00000280: 751c 6fbe 70fb a7be a5a9 f6bd 035b dabe
00000290: 7917 74bd 2f8d b0be c5ab 50be 1575 a5be
000002a0: e3d6 a8be fef5 ec3b 7ab2 8fbe 0b45 7cbe
000002b0: 25d7 83be 4998 fdbd d6cb 1cbe 34da 02bd
000002c0: f524 23be 7d04 78be 5480 e7bd 4ae8 4f3d
000002d0: 8924 93be ee0b 8d3e 96c2 67bd eacc 8ebe
000002e0: 32f1 b4be fa5c 77be 50d2 55be bf08 49bc
000002f0: 2801 b5be e308 06be 5d7f 0fbe a1b2 71be
00000300: 4911 adbe 3064 82be ff2b db3d b142 0abe
00000310: a66b 95be b860 68bd 7701 a2be caf8 81be
00000320: deff 27be 18e2 813d 11df b0be 9d7e 9abe
00000330: d179 10be 1d5d 30be 75a9 07be a7ee 90be
00000340: ff71 59be 6c50 56be 2575 86be 48d8 073e
00000350: 0f6d b7be 8900 4ebe f6d8 adbe 9e18 69be
00000360: 5090 67be c3ef 2cbe f5a6 28be 7675 b4bd
00000370: bb9b 8bbe 514a 64be 3a8c d33c 6202 22bd
00000380: 2f02 82be 8a5a b5be e3f1 9bbe 8d93 93be
00000390: 7bcc bebe e059 a0be 33ab 3ebe f494 093e
000003a0: cc27 a1be 0afd f7bd f627 3bbe a58e a1be
000003b0: 3412 9ebe 3d71 ab3d e638 a7be 5f30 a0be
000003c0: f509 99be 4e4b cf3b 7871 90bd d8d5 803d
000003d0: bdbb 683e 09a9 84be 52d0 3fbe 1ad3 f3bd
000003e0: 3243 84be af39 79bd f40c 88be 8d48 96be
000003f0: a6fa 85be d681 babe 320e cdbe d2c8 01be
-0.07086082 -0.08794492 -0.16181296 0.022556476 -0.12424037 0.03565339 0.029618736 -0.053337254
0.058991697 -0.029104637 -0.042311773 -0.11021039 -0.07144159 -0.136756 -0.0013538136 -0.015574191
-0.06843146 0.004029168 -0.100291595 -0.045023862 0.038402192 -0.08162866 -0.11986951 -0.123814404
0.019717565 0.04527549 0.048370685 0.013187488 -0.0038545413 0.09115802 -0.13117607 -0.022330325
0.043332852 -0.055757534 -0.14014101 -0.058886275 0.012825489 -0.04709943 -0.07657578 -0.00692822
-0.09891937 -0.09452369 -0.008964187 -0.08630551 -0.0037782413 0.03728021 -0.11056956 -0.12843928
-0.04823139 0.03465741 0.02444565 0.017790874 0.025042789 0.053570848 -0.035110287 -0.015310865
0.07287556 0.028523989 -0.031391412 0.014466733 -0.062341474 -0.10260447 -0.01862346 0.052016642
-0.040556557 0.10099626 0.037311338 -0.10760554 0.011694228 -0.07097273 0.01758044 -0.11972477
0.024953116 -0.076499216 -0.13271277 0.042392846 0.039281175 -0.01591397 -0.14547485 0.01064931
-0.043949094 -0.044604868 0.09586844 0.059189945 0.124881886 0.060227484 0.001026015 -0.038629577
-0.052209742 0.063953765 0.04947012 -0.08225837 -0.057324935 -0.10561575 0.016264442 -0.06741917
0.035362683 -0.05377215 0.014555064 -0.06581786 -0.0008945065 -0.044316184 0.033126596 0.07530408
-0.081843816 -0.0050314376 -0.14413287 -0.055966634 -0.01989541 0.0713341 0.071426615 0.12785481
-0.012281492 -0.021121696 -0.09469267 -0.038308613 0.071773976 -0.11078635 -0.019392943 -0.082531646
-0.09811859 0.08812656 0.04496815 0.1229254 -0.09514422 -0.05205554 -0.010846953 -0.07038627
-0.14945064 -0.24203832 0.0071292045 -0.28633872 -0.35144788 -0.047761627 -0.33038914 0.12827425
-0.24973804 -0.1536103 -0.19377722 -0.3075546 -0.32872722 -0.1948262 -0.1339578 -0.18788937
-0.3730839 -0.3796424 0.30128393 -0.25966185 -0.18610983 -0.28619152 -0.19518973 -0.30578682
0.09054992 -0.12667146 -0.32582396 -0.2721979 -0.19770053 -0.32192287 -0.34956703 -0.28804508
-0.23350699 -0.3280902 -0.12044076 -0.4264756 -0.059592698 -0.34482715 -0.20378025 -0.3231589
-0.32976446 0.007231473 -0.28065854 -0.24635713 -0.2575008 -0.12382562 -0.15312132 -0.031946376
-0.15932067 -0.24220462 -0.113037735 0.050758637 -0.28738812 0.27548164 -0.056582056 -0.27890712
-0.35340267 -0.24156561 -0.20881009 -0.012270152 -0.35352445 -0.13089328 -0.14013429 -0.23603298
-0.3380225 -0.25467062 0.10701751 -0.13502003 -0.29183692 -0.056732863 -0.31641743 -0.25385123
-0.164062 0.06341952 -0.34545186 -0.30174723 -0.1410897 -0.1722302 -0.13248236 -0.28307077
-0.21234892 -0.20929116 -0.2626125 0.13266098 -0.35825393 -0.20117392 -0.3395459 -0.22763297
-0.22613645 -0.16888337 -0.16469939 -0.088114664 -0.2726725 -0.22293974 0.025823701 -0.039553054
-0.2539229 -0.35420638 -0.30457982 -0.2882351 -0.3726538 -0.3131857 -0.18619995 0.13435727
-0.31475675 -0.1210881 -0.18276963 -0.31554142 -0.30873263 0.08371208 -0.32660598 -0.31286904
-0.2989041 0.0063261157 -0.070528924 0.062907875 0.22727866 -0.25910214 -0.18731812 -0.11905499
-0.25832516 -0.060846027 -0.26572382 -0.29352227 -0.26167792 -0.36427182 -0.40049893 -0.12674263

gru.weight_hh_l0 f4 [384, 128]
00000000: a8d1 42bd fe69 a0bd 4074 a03d 3030 98bd
00000010: 98c3 713d f67a 9d3d 7bdf 56bd ab69 793d
00000020: 85cb f93c e8fe 1bbd e67a e1bd b01e 3cbd
00000030: 5a3a b53c b659 fd3d b3e6 303c 0411 043e
00000040: 98e2 103d 8dc6 aabd a23e 31bc 95aa 533d
00000050: 8fad 81bc f4a7 26bd 2e90 0fbd e242 7b3d
00000060: a873 4d3c 0137 803c 2f75 4f3d 348a 39bd
00000070: 3dc1 4a3d 7a2b 053e b8b3 2ebd 5fe4 a33d
00000080: 1662 c7bd a60d cf3c 0f61 45bc ff40 4e3b
00000090: 364a 0b3d 591b 173d 39fe e63c 533e 4fbd
000000a0: bb93 523d 9650 5cbd 543f 81bd 3c29 4f3d
000000b0: 0871 1e3d 0b6a 8fbc 72ac a0bd 7e27 9bbd
000000c0: b302 c9bd 6651 27bd 7ddc 23bd d5b3 963d
000000d0: 1f10 eebd 95aa f33c b7cf 16bd 4d9b a7bd
000000e0: 0b32 d53d f74b 40bd 8f27 ca3d 72f2 a1bd
000000f0: 30c1 a33c 6a2d 633b e3fc 9e3d 4b16 c63b
00000100: 5979 dd3c 8983 303d 4051 243d 0c14 b9bd
00000110: 6f14 b43d 37bf e9bc f371 413d 46db 5fbd
00000120: ef7a f3bc a67d 713d b2be 56bc 1e0e 323d
00000130: 152d 07bb 6f6d 113d e744 093d d965 eebd
00000140: 636f ddbc b138 653c 105b bdbd bffb b0bc
00000150: c2c1 30bd 1ad0 f1bd 069c fabd 9f01 6c3d
00000160: 4f11 853c 2e73 89bd 1c83 933d 0843 e13b
00000170: c11a c13c ac4e 7dbd be99 95bd d5d4 f43c
00000180: 04c4 8cbc aa34 e2bd 95de 823c 11bb 193d
00000190: 1d96 02be f606 033d 3aaa 523d f6c8 bb3d
000001a0: 4c50 383d 69b2 663d 423e 173d 7c05 c93c
000001b0: e9a2 fc3d 2efc 08bd 247c 17bd d635 8b3d
000001c0: dc6f b33d 1c2a 883d a7fa 2dbd 0bf0 7d3d
000001d0: 0def 8fbc f9de 22bd fde7 4a3d d379 963d
000001e0: 6045 363d 889b 8f3d c21d 66bd 6e41 b5bd
000001f0: 0459 75bc 83de 453c 1b7e d8bd 3aaa 4e3d
00000200: b64d 74bb 34ee 823d 3813 b63d 78b3 01bd
00000210: 5d14 b13d d446 5abd 7c51 973d 1b38 60bc
00000220: 0428 9dbd f524 753b 08c6 613b b1c5 103d
00000230: d9c7 2e3d 3507 6d3d 36dc ddbc fa94 423d
00000240: c2fa 2e3b 64ae d43c 8286 4b3d 5314 043c
00000250: 2e44 8abd 58d4 cdbc 763e 2e3b 02a7 4c3d
00000260: 1e19 0ebd 4591 253d 57fc a73d 225a 963c
00000270: 1cdc c43d ebf3 953d 367c eebc 4f94 393d
00000280: 91fd a6bd b049 c2bd 2ebf e1bd 8efc ce3d
00000290: 827b 39bd 82b5 13bd a893 43bd d876 fbbd
000002a0: b0ee f83d 238b 3ebd 59d6 7eb9 60cc cbbd
000002b0: 48ec 9f3d bcd4 73bd 6202 80bd d390 acbc
000002c0: 5c04 ee3c b186 c5bd 6f53 c43d 2d7a 1bbd
000002d0: bb57 08be 25a7 9cbd cce3 a13d 7190 8bbd
000002e0: de59 d1bc 9925 44bd 07ca b23d e08c c6bd
000002f0: 965a 8ebd e4ce fe3c f1bc 143d df7f d23b
00000300: 86d5 4c3d ebb5 dbbc 4754 f23d 8138 30bd
00000310: 7c4c 4a3b ab89 d13c 2acb 243d 2c91 ba3d
00000320: ce50 86ba fca4 e83c 9e53 233c aedd c9bd
00000330: 93d0 e43d 5194 94bd 47e4 24bd d074 01bd
00000340: 6814 b5bc 4d16 1b3b 12cf ed39 afc1 cabd
00000350: e572 8fbd a4e1 37bd 3a2a c2bc 4a37 b1bb
00000360: 0a80 86b9 53d0 2f3d cfa3 bc3d b00e b93d
00000370: 1fb1 95bd 7109 9ebb c5d7 eebd 3be7 5a3d
00000380: 14c3 273d 085a 023d ee1f 0e3d 2ebd 27bd
00000390: 4c62 83bd 89cb d83d 3272 34bd c2a0 613d
000003a0: 5c1e ec3d 9431 89bc 403e d7bd b18c e73c
000003b0: 94b0 0fbd 46e7 3f3d d480 493c 6bd5 0f3d
000003c0: 3aaf 593d 6835 803d f8ba cf3d 4d90 11bd
000003d0: 987f f13d 3718 0a3d 0944 2abd 1d78 07bd
000003e0: b4c4 a03d 6f21 973d 3c2c 7dbd 5f0c 97bd
000003f0: b0df d63d 4c13 b3bc 49a5 ffbd 194a 7bbd
-0.047563225 -0.078327164 0.07834673 -0.07431066 0.059024423 0.076894686 -0.05245922 0.06089179
0.030492553 -0.038084894 -0.11009769 -0.045927703 0.02212255 0.12370627 0.0107971905 0.12897116
0.035372347 -0.08338652 -0.0108181555 0.05167635 -0.01582983 -0.040687516 -0.03504961 0.06134308
0.012539782 0.015651228 0.050648864 -0.045297816 0.049500693 0.13004866 -0.042651862 0.08002543
-0.09735505 0.025275063 -0.012047066 0.0031471846 0.03400632 0.036891315 0.028197395 -0.050596546
0.051410418 -0.05378779 -0.06310907 0.050576434 0.038682014 -0.01750662 -0.07845391 -0.07575892
-0.09814968 -0.040849112 -0.040005196 0.07358519 -0.116241686 0.029744426 -0.036819186 -0.08183918
0.104099356 -0.046947446 0.098708265 -0.07907571 0.01998958 0.003466452 0.07763078 0.006045138
0.027035402 0.04309419 0.04011655 -0.09037027 0.0879296 -0.028533561 0.04722781 -0.054652475
-0.029721705 0.05895772 -0.013106989 0.043470494 -0.0020626236 0.035504755 0.033512976 -0.1164052
-0.027030652 0.013990567 -0.092458844 -0.021604417 -0.04315353 -0.1180727 -0.1223679 0.057618733
0.016243605 -0.06711422 0.072027415 0.006874446 0.023572328 -0.061842605 -0.073047146 0.029886642
-0.017183311 -0.11045201 0.015975276 0.037531916 -0.12752576 0.03198906 0.051431872 0.0916919
0.044998452 0.05632249 0.036924608 0.024538748 0.1233576 -0.033443622 -0.036983624 0.06797378
0.0876157 0.06648657 -0.04247537 0.0619965 -0.017570043 -0.039763425 0.049537648 0.07347455
0.044499755 0.07012087 -0.056180723 -0.0885037 -0.014974836 0.012076977 -0.10570928 0.05045531
-0.0037277765 0.0639309 0.088903844 -0.031665295 0.08646462 -0.053290203 0.07388589 -0.013685252
-0.07673648 0.0037406061 0.0034450311 0.035344783 0.04267106 0.0578682 -0.027082544 0.047505356
0.0026699756 0.025962062 0.049688824 0.008061486 -0.067512855 -0.025125667 0.0026587523 0.04996396
-0.034691922 0.040421743 0.08202427 0.018353526 0.09612295 0.07321914 -0.029111963 0.045307454
-0.08153833 -0.09486711 -0.11022793 0.10106765 -0.0452838 -0.03606177 -0.047748238 -0.12278527
0.12154901 -0.04651941 -0.00024303178 -0.09951091 0.07808739 -0.05952905 -0.062504545 -0.021065151
0.029054813 -0.09644831 0.09586226 -0.037958313 -0.13314717 -0.07649068 0.07904777 -0.068146594
-0.025555547 -0.04788742 0.0872994 -0.096948385 -0.06950872 0.031104513 0.036313 0.006423935
0.05000832 -0.026820144 0.11832481 -0.043022636 0.0030868342 0.02557834 0.040232815 0.091097206
-0.001024747 0.028398983 0.009968666 -0.09856735 0.11172595 -0.072548516 -0.040256765 -0.03160554
-0.022104457 0.0023664415 0.00045358442 -0.099002235 -0.07004336 -0.044892922 -0.023701776 -0.0054082023
-0.00025653868 0.042923283 0.092109315 0.090360045 -0.07309174 -0.004822903 -0.116622485 0.053443175
0.040957525 0.03182414 0.03469842 -0.0409519 -0.06415233 0.10585696 -0.044054218 0.05508495
0.11529228 -0.016747274 -0.1050992 0.02826533 -0.035080507 0.04685142 0.012298781 0.03511564
0.053145625 0.062601864 0.10143083 -0.035538007 0.11791915 0.0337145 -0.04156879 -0.033073533
0.07850018 0.07379424 -0.061809763 -0.073754065 0.10491884 -0.021859787 -0.124826975 -0.061349962

gru.bias_ih_l0 f4 [384]
00000000: 79c8 40bd 8785 94bd 735f ccbc 16e4 ffbd
00000010: 1aed 2fbb b69e 493d 60df dabc 257c a93c
00000020: 697b afbd 9b24 bfbd 8019 3bbd 3cf1 853c
00000030: 897a 56bd f58b 543d 5cec d0bc 89bf 1dbc
00000040: a43f d03c da32 c2bd 03d7 a13c 2e66 2fbd
00000050: c9de 7fbd 35bc d0bd 5ffb f1bc 387b 043d
00000060: 247a f03a be26 2ebd 85e5 d03c 507b 48bd
00000070: 84c6 c5bd b239 5fbd 76eb d5bd 6289 993d
00000080: 84ec 4d3b b443 6038 04e3 2cbd 2994 943d
00000090: 9058 01be b491 043d c735 25bd 0c69 623d
000000a0: 1a88 3f3d d4f5 d1bc 522e dd3c db0e 94bb
000000b0: 3214 b83c 4f34 413c 3397 03be 68b3 e83b
000000c0: 78c4 053d a59e 233d f6e2 3fbd 0083 a0bc
000000d0: 6df6 793d b0e9 9a3c d517 58bd a151 3e3c
000000e0: e089 cebd ffac aeba a6eb f03c 0b31 8dbd
000000f0: 4d69 a73d 72b0 41bd 27ec f23c 34b0 323d
00000100: 523d 17bd 0b3d a6bd 299f 67bd e751 acbd
00000110: 241b 043c d5d0 14bd 969a 45bc 0650 34be
00000120: 5edb ffbc 8b0e 243d 1654 45bb d897 5cbd
00000130: 4222 0fbd 3a51 663d 5b1a 17bd 60ec a53d
00000140: ac98 02bd bf3b c4bd 4f3c 0c3d f1da 003d
00000150: fc81 babc ca95 d4bd a5c0 4abd 0163 a4bd
00000160: 84c0 0dbe 4123 053d d34a 9b3c 026d d63c
00000170: 8342 b53d 5f11 a8bd 2ae8 92bd 4556 f9bd
00000180: d78d 513d f8a5 68bd ca87 a33b bb66 c2bd
00000190: 535f 553c 7ecd 673d d5e5 2b3d 500d 1c3c
000001a0: fe85 f0bd e41f 1cbc 4460 163d c069 c4bd
000001b0: b621 d6bd b83d 70bd 63c7 abbd 7fed 383d
000001c0: 097a c2bc 26f6 79bd 70f9 2fbd e126 1c3d
000001d0: 8eac 9f3d b61d 0c3d 8d7f 003d 958d 8ebc
000001e0: 9ad7 14bc e74e 2a3d 3d23 aebd 92bc 153d
000001f0: 0dc5 dabd 57c6 d9bc d761 44bc e6f3 38bd
00000200: 31d1 6dbe 5028 6dbe ef8d 6cbd 5991 acbe
00000210: bc4b adbe c686 0ebe a83b c8be 73b1 ddbb
00000220: 8ebc c7be 3d87 b9bd 00d2 74be cd8e 96be
00000230: 1ca7 dfbe 0eaf b3be 372d 86be ae4e c4be
00000240: 61bc afbe a59f b7be 21c4 b33e cb03 cfbe
00000250: 51cb a4be 6814 c5be 32c1 5bbe 0b2c acbe
00000260: 4693 4fbd 1ed2 9fbe 51eb d6be 197b dabe
00000270: 23fe acbe 626f d3be e5d1 82be 978b bbbe
00000280: 10ce d6be ff48 dabe 6a0b a6bd 5a3d d4be
00000290: 60ad 18be 3a67 8abe b527 95be 836d 9ebe
000002a0: 9ec7 82be ad0c d3bd b740 8fbe ea4c c4be
000002b0: 1aaf 8bbe 9720 0dbe 44d8 59be 9214 61bb
000002c0: 7a89 5dbe 6118 acbe 7cf3 06bd f060 edbc
000002d0: 6c63 a3be c287 743e d4ca 34be d4d5 cabe
000002e0: 0da4 d5be 1608 c5be cf17 8ebe da27 20be
000002f0: f8a2 abbe 6be4 95be 52d9 16be bf26 a4be
00000300: d3b5 a5be 5c64 54be dc26 e93d 6e22 5abe
00000310: 6f54 ccbe 1f85 61be b88e 88be 929c 9fbe
00000320: 8ea4 3cbe e24a 0c3e 0239 cbbe 4687 a6be
00000330: 542a 84be 254f 64be b2d3 91be 96f2 a2be
00000340: 9a3a 9abe c81a b2be a244 a3be c68d a53d
00000350: ba67 89be 2c67 a6be 87dc 9abe 654c abbe
00000360: 6132 8bbe a996 d9bd ceac bdbe b57e e9bd
00000370: b66d adbe 961f 86be 0107 43bc a2da 6ebd
00000380: 6501 bbbe 8a35 00bf 8bd5 92be 56ab 8fbe
00000390: a2a1 96be fe8c 9dbe 9baf adbe 7ab5 8d3d
000003a0: 108e 8ebe 3f12 5abe d539 babe c5ec c6be
000003b0: 5666 75be aaa4 a73c c423 98be 89ff cfbe
000003c0: a64b 9abe cd7d 9e3d 855e 27be 115f 213e
000003d0: 2ff4 ab3e a0e4 a3be 5bc3 b5be 9804 33be
000003e0: 9a59 94be caab 06be 73f4 75be 6665 9ebe
000003f0: 6fed c6be bed7 b0be 71cd a2be bd54 0dbe
-0.047066186 -0.07252031 -0.024947857 -0.12494676 -0.0026844204 0.049223624 -0.026717842 0.02068908
-0.085684605 -0.09333154 -0.045678616 0.016350381 -0.052362952 0.051891286 -0.02550333 -0.009628185
0.025420971 -0.094823554 0.019755846 -0.042822056 -0.062468324 -0.10192148 -0.029538808 0.032344073
0.0018346948 -0.042517416 0.025500068 -0.048945725 -0.096570045 -0.054498382 -0.10445301 0.07496907
0.0031421492 5.3468815e-05 -0.042208686 0.07254822 -0.1263144 0.032365516 -0.04033449 0.05527596
0.046760656 -0.025629915 0.026999626 -0.0045183725 0.022470567 0.0117922565 -0.12850647 0.007101465
0.03265807 0.039946217 -0.046847306 -0.019593716 0.061026026 0.018910259 -0.052757103 0.011616142
-0.10084891 -0.0013326703 0.02940924 -0.0689412 0.081743814 -0.047287412 0.029653622 0.04362507
-0.036923714 -0.08117112 -0.05654827 -0.08414059 0.008063111 -0.03633197 -0.012060782 -0.17608652
-0.031232532 0.04005293 -0.0030109934 -0.053855747 -0.03494478 0.056229807 -0.03689037 0.081017256
-0.03188388 -0.09581708 0.034237202 0.0314588 -0.02276706 -0.103801325 -0.049500126 -0.08026696
-0.1384297 0.032504324 0.018956577 0.026175026 0.08850577 -0.08206438 -0.07173188 -0.12174658
0.05116066 -0.056798905 0.0049905526 -0.094922505 0.013023215 0.056592457 0.04196723 0.009524658
-0.11744307 -0.009529088 0.0367129 -0.09590483 -0.104556486 -0.05865261 -0.083876394 0.04514837
-0.023739832 -0.06102576 -0.04296249 0.038123015 0.07796584 0.034208022 0.031371642 -0.017401496
-0.009084607 0.041579153 -0.08502815 0.036556788 -0.10682116 -0.026583834 -0.011986217 -0.045154475
-0.23224331 -0.23159909 -0.057752546 -0.3370464 -0.33846843 -0.139186 -0.39108014 -0.0067655384
-0.39011043 -0.09058998 -0.23908234 -0.29405823 -0.43682182 -0.35094494 -0.2620637 -0.38341278
-0.3432341 -0.35863987 0.35110572 -0.4043258 -0.32186368 -0.3849213 -0.21460417 -0.33627352
-0.05067756 -0.31214994 -0.41976407 -0.4267204 -0.3378764 -0.41295916 -0.25550762 -0.36629936
-0.41954088 -0.42633817 -0.08107646 -0.41453058 -0.14909887 -0.2703188 -0.29131857 -0.30942926
-0.2554292 -0.10305152 -0.2797906 -0.3833993 -0.2728203 -0.13781963 -0.21273905 -0.0034344536
-0.21634474 -0.3361235 -0.03294705 -0.028976887 -0.3191179 0.23879912 -0.17655498 -0.39616263
-0.41726723 -0.38482732 -0.2775254 -0.15640202 -0.33522773 -0.29275832 -0.14731339 -0.3206081
-0.32365283 -0.20741409 0.11384365 -0.21302196 -0.39908168 -0.22023438 -0.26671386 -0.3117414
-0.18422148 0.1370044 -0.3969193 -0.3252508 -0.25813544 -0.22295816 -0.28481823 -0.31825703
-0.30122834 -0.34786057 -0.318883 0.08083682 -0.2683695 -0.3250059 -0.30246374 -0.33456722
-0.27186874 -0.10624439 -0.37045902 -0.114011206 -0.33872765 -0.26195973 -0.011903525 -0.058313973
-0.365245 -0.50081694 -0.28678545 -0.28060406 -0.2942019 -0.3077163 -0.3392304 0.069193795
-0.2784276 -0.21296023 -0.36372247 -0.38852516 -0.2396482 0.02046426 -0.29714787 -0.40624645
-0.3013584 0.07738838 -0.1634465 0.15758921 0.33584735 -0.32010365 -0.35500607 -0.17482221
-0.2897461 -0.1315147 -0.24019031 -0.30936736 -0.38853022 -0.34539598 -0.31797364 -0.13801856

gru.bias_hh_l0 f4 [384]
00000000: 4285 1f3c ff1f 443d 15f5 06be 8d57 79bd
00000010: 7c7e bdbc 0d3d a5bd 61ea 993c 4441 993b
00000020: bc25 533d 05e6 3bbc 7f09 ccbd 31b9 cb3c
00000030: 31be f23c b330 a7bc 176b 52ba c5cd b8bd
00000040: 5735 b8bd 714c cebd 7106 f1bc 0e7b 3e3d
00000050: d991 ae3a 3e0c 8bbb 0301 07bc 6f4d 953c
00000060: a7f9 4ebd d734 303d b1f4 8cbd 5cd4 1dbd
00000070: ffe1 6a3c c749 373c f848 77bd 1783 46bd
00000080: d0e6 603b feab b8bd f2cb 4e3d f69c 46bd
00000090: 8603 b73b 6a4b aebd facb 1e3c bf64 85bd
000000a0: de71 15bd d812 8abd 29bc 913d db85 a1bd
000000b0: 123e 0c3d f62f 403d 386c a33c dd70 ff3c
000000c0: cd87 443c 11d3 cf3c 0314 043d 44cc 32bd
000000d0: 0750 b9bc 830f df3c f0fa 63bd 5208 8dbd
000000e0: 456e ecbd 5d2f b13c 9cf0 9cbd d981 833d
000000f0: 0d3b 6d3d 22a5 f2bc 2c2b b33c e867 7fbd
00000100: a02b 80bd 07c5 69bd 9f43 81bc aacd 39bd
00000110: c98e 85bd a9e8 643d 1c6c c8bd 4e3b 58bd
00000120: c8fc 3d3d 6f6c 833c bbb6 10bd f094 183b
00000130: e889 503d 9f62 f0bb 8429 f13c f52b bf3c
00000140: 864f bdbd 6d82 acbb 9a54 25bd 2f1d b1bd
00000150: 3e93 633d f26d e83b 0d20 703c f107 4dbd
00000160: b362 c9bd 7ae0 dfbd b31f 29bb e104 cfbd
00000170: b448 243d 4ec4 003c 2e87 c7bc fe34 68bd
00000180: 2393 80bd 77fa a0bd 4ef3 5f3d cd07 3d3d
00000190: cb7e 443d 7bf4 d73c acbb 82bd b800 773d
000001a0: 2a30 3ebd 229d b4bc 41d5 01be 6281 53bd
000001b0: e482 51bd 4c06 323d 9574 49bd 52c9 d5bd
000001c0: 0187 5abd 3a96 29bd ce3e 08be e9f8 533d
000001d0: 1b56 68bd 1596 f53c 7407 c93d 8b3f ec3c
000001e0: 884e 873d 691a 74bd b945 c2bd 84ae 3f3d
000001f0: e1d8 dc3c 40e3 9dbd ad93 483d bed0 fdbd
00000200: dfe8 83be 7730 8cbe f6a7 f4bc b461 93be
00000210: 7f57 9abe 5aeb 67be e903 d4be 25a8 323d
00000220: 37ba 9ebe d480 d5bd bf5b a5be c429 a6be
00000230: 63e2 abbe a0ff b2be 84fa 5cbe af64 8fbe
00000240: 7692 d4be d9d3 d2be 67e1 883e 9179 b3be
00000250: 11f8 77be b697 83be a536 87be 8ae6 b4be
00000260: 6754 cfbc 40f0 aabe 4831 b5be 6404 b4be
00000270: 62a9 66be 7b3c c1be 7683 babe f42e adbe
00000280: c88d 9bbe 7954 a9be 8bb1 54be 4f41 e3be
00000290: a800 e7bd 56b4 aabe f1de 8ebe 7c1c 94be
000002a0: 1d81 a2be 89b0 afbd 6018 bbbe 79e8 87be
000002b0: bed1 a6be 179b 82be 0348 7ebe 2d80 c3bd
000002c0: c803 5fbe b55e c7be b4cf 58bd 3a92 ff3d
000002d0: 26cc 4bbe 772c 5d3e ea9e d0bd 80bb 90be
000002e0: 6c54 adbe 9999 d0be b66f 76be 60b0 febd
000002f0: f4c1 98be 348e 91be 1027 97be f8c1 7abe
00000300: 1348 c8be 458e 44be 4285 4f3d 2e28 37be
00000310: 3319 b8be 9695 b9bd 262b a5be d520 dabe
00000320: ef25 4fbe 6dfe 1c3e 1f98 a0be a3cf 89be
00000330: bdac 30be f761 11be da94 5dbe a6a8 e3be
00000340: e864 59be 9e7e a0be 8d62 7ebe 81ff 003e
00000350: 4e46 d1be 65c0 9abe b21a abbe 45cf 45be
00000360: 1562 5ebe 8657 23be af8f a2be d4f9 9bbd
00000370: a822 3fbe a349 cebe bbd0 28be e6db 1d3c
00000380: 6c38 b0be 5595 cabe fa15 86be 7961 96be
00000390: 8762 babe 0b37 a3be bc83 79be 2147 313d
000003a0: 1d59 babe b2ea 86be 1f2d a2be 6656 c2be
000003b0: f0a0 a8be 02d9 9b3d 58e7 7fbe 2816 c2be
000003c0: 80f0 63be 5185 5ebd 955f 45be 9301 2a3d
000003d0: 47f0 963e 8d3e b3be ce21 b4be 73fe 06be
000003e0: 02aa a6be be5f fabd 4ab9 8cbe 228d 86be
000003f0: 37f4 92be e988 9dbe a685 9ebe 1d46 37be
0.009736361 0.047882076 -0.13179429 -0.06087451 -0.023131602 -0.08068285 0.018788518 0.0046769697
0.05154966 -0.011468415 -0.09962749 0.02486858 0.029631706 -0.020408964 -0.0008026822 -0.090236224
-0.08994549 -0.10073174 -0.029422017 0.046504073 0.0013318612 -0.0042434027 -0.008239987 0.0182254
-0.050531056 0.043019142 -0.06882609 -0.0385326 0.014336108 0.0111870235 -0.060372323 -0.04846486
0.0034317262 -0.0901718 0.050487466 -0.048489533 0.005585137 -0.08510478 0.0096921865 -0.065133564
-0.036485545 -0.067418754 0.07115967 -0.07886859 0.034238882 0.04692074 0.019949064 0.031181747
0.011995268 0.025369199 0.032245647 -0.043651834 -0.022621168 0.027229076 -0.055659235 -0.068863526
-0.1154447 0.02162903 -0.0766308 0.06421251 0.057917643 -0.029619757 0.021871172 -0.062354952
-0.06258321 -0.057072666 -0.015779315 -0.045362152 -0.06521375 0.055885945 -0.09786245 -0.052790932
0.04638365 0.016042916 -0.035330515 0.0023282133 0.050912768 -0.0073359753 0.029438742 0.02333639
-0.092436835 -0.0052645714 -0.040363885 -0.086481445 0.055560343 0.0070931846 0.014656079 -0.0500564
-0.098332785 -0.109314874 -0.0025806248 -0.101083525 0.040108398 0.007859303 -0.02435645 -0.056691162
-0.06278064 -0.078602724 0.054675393 0.046150018 0.04797248 0.026361695 -0.06383452 0.06030342
-0.04643265 -0.022047583 -0.12679006 -0.05163706 -0.051150218 0.043463036 -0.049183447 -0.104387894
-0.053351406 -0.041403033 -0.13305208 0.05175105 -0.05672274 0.029978791 0.09815875 0.028838893
0.066067755 -0.0595955 -0.09485955 0.04679729 0.026958885 -0.0770936 0.04896896 -0.1239333
-0.25763604 -0.27380726 -0.029865246 -0.2878548 -0.3014488 -0.22648373 -0.41409233 0.043617386
-0.31001446 -0.10424963 -0.3229656 -0.3245374 -0.33571157 -0.3496065 -0.21579939 -0.28006503
-0.4151799 -0.41177252 0.26734468 -0.35053685 -0.24215724 -0.25701684 -0.26408878 -0.35332137
-0.0253088 -0.3338642 -0.3538916 -0.351596 -0.22525552 -0.37741455 -0.36428422 -0.33824885
-0.30381608 -0.3307226 -0.20770852 -0.44385764 -0.11279422 -0.3334071 -0.27904466 -0.28927982
-0.3173913 -0.08578593 -0.36542034 -0.2654455 -0.32581896 -0.2550895 -0.24832158 -0.09545932
-0.21778786 -0.38939443 -0.052932456 0.124790624 -0.19902095 0.21598993 -0.101865605 -0.2826805
-0.3385347 -0.40742186 -0.24066052 -0.124359846 -0.29835474 -0.28428805 -0.2952199 -0.24488056
-0.39117488 -0.19194897 0.050664194 -0.17886421 -0.35956725 -0.090617344 -0.32259482 -0.42603174
-0.20229314 0.1533143 -0.3136606 -0.26916227 -0.17253394 -0.14197527 -0.21638814 -0.44464606
-0.21229899 -0.313466 -0.24842282 0.12597467 -0.4087395 -0.3022491 -0.33418804 -0.19317348
-0.21717103 -0.15951356 -0.31750247 -0.0761601 -0.18665564 -0.40290555 -0.16485874 0.009634947
-0.34418046 -0.39567056 -0.26188642 -0.2937124 -0.36403295 -0.31877932 -0.24366659 0.043280724
-0.36396113 -0.26350933 -0.3167505 -0.37956542 -0.32935286 0.0760975 -0.24990594 -0.3790753
-0.22259712 -0.05432636 -0.19274743 0.041505408 0.29480192 -0.3500866 -0.3518204 -0.13183002
-0.3255158 -0.122252926 -0.27485114 -0.2627955 -0.28701946 -0.30768517 -0.3096134 -0.1789784

gru.weight_ih_l1 f4 [384, 128]
00000000: cc71 893c 2773 753d b989 9cbd f9e0 56bc
00000010: 75d7 0cbd cb3e e4bd 93ad ec3b 45c9 58bd
00000020: 8dd0 79bd eb7a 983d 0605 c6bd 91de 1d3d
00000030: a17b 3fbd e98f 3b3d ea7c 02bd 14dc e53c
00000040: a11f e23c 7c66 363d 9344 1abb a126 9ebd
00000050: f15d a83c dd4b c4bd 91fe 92ba 06dc a13c
00000060: ba6b 3e3d 25ae c23d 6d06 693d f17e a03d
00000070: 8949 94bd b88b 9cbc 6b02 bcbd 5b02 a53d
00000080: eda2 7b3d 12ad 3fbd cbb9 c93d 1950 a5bd
00000090: c23d a83a 647d 94bc 2a82 543d baa8 3d3c
000000a0: 1af6 7cbd bf2a 9e3c f4b0 9abd 2c1d 913d
000000b0: 3ad6 bcbd 6797 763d 1fdc 46bd fbf6 b63b
000000c0: da5b ddbc 285d 0ebd b87b a8bd 9af9 16bb
000000d0: 1fbb bfbd c54e 29bd 082e aabd 754c aebd
000000e0: 2ac2 13bd e5df 0bbc 0781 96bd 9615 22bd
000000f0: cdd0 f43c 5b92 e33c 55fa 9bbc acd4 50bd
00000100: e30e bc3d ea56 eebb 4640 32bd 194d 5a3c
00000110: 1a96 173d f6a9 bebd 0464 61bb 7130 9d3d
00000120: 54a7 b23c 0606 943d ea0a 9b3d d2ee 6c3d
00000130: fc83 a53b 7fde ac3c a271 a8bc e184 8a3c
00000140: 9f0b 213c 281b 003d 6c9a 993d 5022 c7b9
00000150: 1535 40bc 5447 43bd e735 bebc d72b 1a3d
00000160: 2517 6e3d 12d4 9e3d 4fba 90bd edd9 3abd
00000170: 3f30 06be 5920 363d 0e3c bfb9 d1cf f9bc
00000180: 3658 853d a8e7 a63c 8caa 8f3b dc37 6abd
00000190: 854a f23c 3878 243c 188e 913d 60b1 83bd
000001a0: 9d8c 863c 60d5 61bd 25cd 00bd 83f4 2e3d
000001b0: ffdb 923d 38a2 753d 6c63 283d 7339 4c3b
000001c0: 05d6 8cbd be13 1fbd 6665 a2bc 8d82 6abd
000001d0: a78b 743d 06bf 3f3d 7461 53bd 523e ce3c
000001e0: 023b 4f3c 6a8b 9fbd 20dd 9c3d 63ca d8bc
000001f0: 24cd 2ebb f320 3fbc 20ad f03c 598b 6cbd
00000200: 271b b4bd dc91 95bd a746 c0bd 86b2 2abd
00000210: ab99 643d 96e4 3d3d 9f8e d5bc 7b46 51bc
00000220: c565 d9bd 74d3 c6bc 2e3b e23c ae2f 49bb
00000230: 94be 90bc cd94 693b 3e7f 123d 7043 c63d
00000240: 391b e53b f8ae 80bd bc3a 1a3d 0068 d73d
00000250: 61d8 d13d aeb6 e2bc 9ac6 c23d bc3b a43d
00000260: e696 2dbd 8010 65bc 024c 50bd f0e2 863d
00000270: dfb5 a9bd 0ca2 c13d 2872 653d 2ca0 a73d
00000280: 12ad 6d3d 010d 0c3d a252 0b3d e19b 1abd
00000290: 1e0a c0bd d529 47bd fba6 80bd e7ea a7bd
000002a0: deb7 a6bd 24b9 493d ccba babd 9a20 153d
000002b0: cf91 86bd 924b 803d 9682 edbb 6ce1 3c3b
000002c0: 02a1 cebc f08b e5ba 76df 003d 745f 28bb
000002d0: c1a3 c83d 5bb7 4dbd 3db8 913c bed8 26bd
000002e0: 3ee3 b03d 2d31 86bd 3243 01bd 09ec 223d
000002f0: 176b 073d 5e17 b5bb 2faf 12bd 7011 5cbd
00000300: 9b65 a9bc 9592 9cbd 4dd7 193d 6e8c 0bbe
00000310: f763 313b b97a 61bc 9117 b93d 388c 35bd
00000320: d3f1 df3d 635b 0b3c 4e35 96ba e895 4bbd
00000330: 28fd 2c3d 2c94 1abc eecf babd 4e4c 58bc
00000340: 0a40 dabc 0e0c 39bd aae6 51bc d55a 193d
00000350: 8f7e 063d ff9e b73b 2c20 debc c752 1a3c
00000360: 4c8a 6d3d ff5f 25bd 0e2b 913c 00e9 8e3d
00000370: 3b8c 483d 3bf7 323d 9511 2dbd 54d4 eb3d
00000380: 5a33 983d 5c1a 91bb d41b 993b 96f7 25bd
00000390: 5396 ddbd 7382 773c 11ad b13c 2ffb ac3d
000003a0: 5630 9c3d bb7f 5a3d 76fb 7c3d 80e2 d93c
000003b0: 3395 44bd 8a71 a2bc 11c2 2b3d 36b6 013d
000003c0: 981a fa3c 1363 0d3d 2b53 4f3d 0411 b93c
000003d0: 569e 22bc 7f30 8e3d b9de 573c e72f 7c3d
000003e0: 2ad0 283c a6c4 ea3c a86c f8bb c533 dbbc
000003f0: 9906 223c b22f c4bd 8b9a 4b3d 27d3 a6bd
0.016777895 0.05992427 -0.07643456 -0.013115161 -0.034385163 -0.11144789 0.00722284 -0.05292632
-0.060989905 0.0744532 -0.09668927 0.038542334 -0.04674876 0.04579154 -0.03185741 0.028059043
0.027602972 0.04453133 -0.0023539409 -0.07722212 0.020552607 -0.09584782 -0.0011214783 0.019758236
0.046489455 0.09505872 0.056890894 0.07836712 -0.07240588 -0.019109592 -0.09180149 0.0805709
0.061434675 -0.046795912 0.0984989 -0.08071918 0.0012835788 -0.018126197 0.051881947 0.011575872
-0.06175814 0.019307492 -0.075532824 0.07085642 -0.09220548 0.060202982 -0.048549768 0.0055836416
-0.027021337 -0.03475681 -0.082267225 -0.0023036958 -0.093618624 -0.041334886 -0.08309561 -0.08510677
-0.03607384 -0.008537267 -0.07348829 -0.039571367 0.02988472 0.027779749 -0.019040266 -0.05098407
0.09182527 -0.0072735446 -0.043518327 0.013324046 0.037008382 -0.09309761 -0.003439189 0.07675255
0.021808304 0.072277114 0.07570441 0.057844944 0.005051134 0.021102188 -0.020561997 0.016909065
0.009829431 0.0312759 0.07500157 -0.00037981803 -0.011731406 -0.047675446 -0.023219062 0.037639465
0.05812754 0.07755293 -0.070667855 -0.045617986 -0.13104342 0.044464443 -0.00036475103 -0.030494602
0.065109655 0.020374134 0.0043843444 -0.057182178 0.02957655 0.010038428 0.0710718 -0.06430316
0.016424472 -0.05513513 -0.03144564 0.042713653 0.07170867 0.059969157 0.04111044 0.0031162172
-0.068767585 -0.038837187 -0.019823741 -0.05725341 0.059703495 0.046813034 -0.05160661 0.025176201
0.012648346 -0.07790263 0.07659364 -0.026463693 -0.0026672566 -0.011665571 0.029379427 -0.05775008
-0.087942414 -0.07303211 -0.09388476 -0.04167416 0.05581061 0.046360575 -0.026068984 -0.0127731515
-0.10615114 -0.02427075 0.02761611 -0.0030698585 -0.017669 0.003564167 0.03576588 0.096808314
0.0069917706 -0.06283373 0.03765367 0.10517883 0.10246349 -0.027675 0.095105365 0.08019206
-0.042380236 -0.013980985 -0.050853737 0.06586254 -0.08286642 0.09454736 0.05601707 0.08184847
0.05802638 0.03419209 0.03401435 -0.037746314 -0.0937693 -0.04862388 -0.06281849 -0.08199101
-0.08140539 0.04924883 -0.0911766 0.036408044 -0.065707795 0.06264414 -0.007248233 0.0028820885
-0.025223259 -0.0017513018 0.03146311 -0.002569166 0.097968586 -0.05022369 0.017788047 -0.040734045
0.08637093 -0.06552348 -0.031558223 0.039775882 0.033061113 -0.005526467 -0.0358116 -0.053727567
-0.020678332 -0.07645146 0.037558842 -0.13627788 0.002706764 -0.0137621695 0.09037698 -0.044323176
0.10934796 0.008505675 -0.0011459978 -0.04970351 0.042233616 -0.009434741 -0.09121691 -0.013201786
-0.026641864 -0.045177512 -0.012811342 0.03744014 0.03283554 0.0056036706 -0.02711495 0.00941915
0.05799322 -0.040374752 0.017720725 0.06978035 0.04896186 0.04369281 -0.042253096 0.11515108
0.074316695 -0.004428191 0.004672507 -0.04051932 -0.10819688 0.015106785 0.02168897 0.08446347
0.07626407 0.05334447 0.06176325 0.026597261 -0.04799385 -0.01982953 0.041933123 0.03166791
0.030530259 0.034518313 0.050616425 0.022591121 -0.009925446 0.06942844 0.01317566 0.06156912
0.010303536 0.028658222 -0.007581312 -0.026758084 0.009889268 -0.0957941 0.04970793 -0.08145743

gru.weight_hh_l1 f4 [384, 128]
00000000: 9e23 1f3d 4b0c 593d abca c3bb b180 483d
00000010: 99b4 a1bd 95e7 55bd 163b 8e3d 6ce7 643c
00000020: b637 143c b83c dc3a 52c2 95bb 4b43 a3bc
00000030: b6a5 71bd af98 573c 272b cd3b b1df 5b3c
00000040: ab7b 00bd b4f9 5ebd 8ea2 363c b401 16bd
00000050: ba76 ba3d c623 913c 7904 743d b279 483d
00000060: c87c acbc 190b 82bd b4d5 803d 7b51 613d
00000070: 7126 133d b3e6 8cbd a817 9cbb c13b 503d
00000080: d55a a13d 11b6 99bd edc2 ae3d cc65 413d
00000090: 10cc 923c 5cee 94bd 3b94 82bd 3f67 673d
000000a0: 7f5d a63c cc64 ebbc 2764 04bd 0457 b4bc
000000b0: ba14 493c 7fc4 ab3d 97a0 03bd c491 debd
000000c0: 042a 633d 8dfd 823c dc83 76bd 348d 32bd
000000d0: 906f 3abd 6a49 c4bc e1f4 3cbd 10bb 833d
000000e0: 1f3d e53c ba7a ac3c 7be1 a7bd 38b8 da3b
000000f0: deda 3d3d f15d 5b3d adad 0e3d a3d8 273d
00000100: f6b1 bbbc 4930 573c 3ba4 213d 7053 c63c
00000110: f4ca a13d cb58 343d a35a 39bd fae9 d3bc
00000120: 9a6e b4bd 5c63 a1bd bf45 3bbd 2887 c53c
00000130: ffc5 05bd b248 963d c257 ffbc 30b6 473c
00000140: 8e04 c43d c898 333b d410 d0bb 5e26 66bc
00000150: 104a 09bd f440 313d 3d0f 79bd e0ec 153d
00000160: f006 633c 3d8d bbbd 158e ec3c a96a ba3d
00000170: 2aae 91bd 8259 a5bb 59ea bdbd 9ec9 03bd
00000180: a640 93bc 5dfa bf3c 4ffc b13c 9748 48bd
00000190: 99aa 633b 4b11 a63c 4c31 b43d 9357 983d
000001a0: 98c1 953c d66a 0e3d 37bc 19ba 1d57 d53c
000001b0: 9c65 6a3b 11e8 17bd 2b7f b8bc 000e e1bc
000001c0: be1b 343d d02c 8c3d e687 20bd ac03 b93b
000001d0: 7d70 bebd 7622 31bd 0f36 96bd c2d0 7c3d
000001e0: c64d 94bc 2592 a4bd 9652 babd 86f0 cd3c
000001f0: 9d36 4d3c 8d44 a4bc 7507 24bd e7db 38bc
00000200: 8af5 4ebd c567 0a3c af58 c4bd aa01 1cbd
00000210: eb41 2dbd 87bf e23d b8cd a83d e4b8 fb3c
00000220: bb07 33bb ad91 133c 36ef 6bbd 23b9 88ba
00000230: ff8b c03d f7ff d2bd a505 adbd 5a20 33bc
00000240: 1188 ca3c 7e69 a3bd 2cdf 783c 9df2 0abc
00000250: 565a e13c 9099 a73d 98a3 913d e8cc 96bd
00000260: f0ca ffbb bb5d 14bd b380 37bd 202c 0bbc
00000270: 444a d23b 451c 91bd 3f93 853c d7e1 ab3c
00000280: d8ad c4bd 4cdd 233d 8e73 053d f8ee cb3d
00000290: f076 a53d c258 523d 0346 adbd 175f 2f3c
000002a0: e396 83bc e06a 7e3d 0db5 6f3d 696b 10bd
000002b0: 6622 21bd 4bd2 a83d d001 413d a811 413c
000002c0: 22b8 f4bc ab33 833d 02c7 a83b 235e 68bd
000002d0: 4b21 253d fe3f 90bd 4f9f 293d 9590 743d
000002e0: ecaf 603d 7444 d73d c566 75bc 6339 753d
000002f0: abc8 0abe e3db 8abd 8007 c3bd 8af2 3abd
00000300: 755d a03b 7937 c63d f905 af3c 58b6 113d
00000310: 2795 373d 057c 0dbd 601f 793d 6d90 953b
00000320: 0920 41bd fcee 973c 7abe 7bbd 527f 8abd
00000330: 5784 99bd 0628 763d 867c 1fbd b076 8f3b
00000340: 510c febd a909 de3c 37c2 05be 24f7 02be
00000350: 0030 943d 9f69 9f3d 0708 c3bd 7b49 1cbc
00000360: a2be 8d3d 1a86 e1bc 0903 6f3c 5bd5 483d
00000370: 8db0 15bd 5779 8bbd 43b1 8bbd e16a 803d
00000380: ad09 99bd 1545 33bc 807a fa3c 95bb d9bd
00000390: 96ce c2bd d25c 973c 93e8 983d 7ccf ba3d
000003a0: 27fc 0fbc 759c d63d bedc 7f3d c4d7 6d3d
000003b0: 70d0 043e 9106 473d 22aa d2bc 39bb a23d
000003c0: d637 093d f512 6dbd 682e 793c 058b d5bd
000003d0: 5896 313d 0d9f c0bc e59a 693d 4af3 6fbd
000003e0: 025e 423d c69e 203d 8568 9bbd 04b5 623c
000003f0: c07d 063c 52d2 a8bb 8c28 c9bd 0677 933d
0.038852327 0.05299024 -0.0059750876 0.048950855 -0.078957744 -0.052222807 0.069448635 0.013971191
0.009046486 0.0016802764 -0.004570284 -0.019929549 -0.058995925 0.013158961 0.0062612477 0.013420031
-0.03136794 -0.054437354 0.0111471545 -0.036622718 0.091046765 0.017717253 0.059574578 0.048944183
-0.021055594 -0.06349773 0.06290761 0.055009346 0.035925332 -0.0687994 -0.004763562 0.050838236
0.07878653 -0.075054295 0.08533273 0.04721622 0.01791957 -0.07272026 -0.06375929 0.056494948
0.020308254 -0.028734587 -0.032322075 -0.022014149 0.012273008 0.08387088 -0.032135572 -0.10867646
0.05545999 0.015990043 -0.060184345 -0.043591693 -0.04551655 -0.023960788 -0.046131972 0.06432164
0.027983246 0.021054614 -0.08197304 0.0066747926 0.046351306 0.053556386 0.0348336 0.040978085
-0.022912007 0.013134071 0.039463263 0.024209708 0.07900038 0.044029992 -0.045252454 -0.025868405
-0.08810158 -0.078802794 -0.045720812 0.0241123 -0.032659527 0.07338084 -0.031169776 0.012189433
0.09571181 0.0027404297 -0.0063496623 -0.014047233 -0.033517897 0.043274835 -0.060805548 0.036602855
0.0138566345 -0.091577984 0.028876344 0.09102375 -0.07113297 -0.0050460706 -0.09273214 -0.0321747
-0.017975163 0.023434812 0.021726755 -0.048897352 0.0034739135 0.020271918 0.08798465 0.074385785
0.01828079 0.034769855 -0.0005864533 0.026042515 0.003576613 -0.03708655 -0.022521576 -0.027472496
0.04397177 0.06844485 -0.039192103 0.0056461897 -0.09298799 -0.043245755 -0.073345296 0.061722524
-0.018103492 -0.08035687 -0.09097783 0.025139105 0.012525228 -0.020052219 -0.040046174 -0.011282898
-0.050527133 0.008447592 -0.095872276 -0.038087524 -0.042299192 0.11071687 0.08242363 0.030727811
-0.002731784 0.0090069 -0.057601176 -0.0010431152 0.09401702 -0.10302728 -0.08448342 -0.010933006
0.024723085 -0.079791054 0.015189927 -0.008480695 0.027508896 0.081835866 0.07111281 -0.073633015
-0.0078061745 -0.0362222 -0.04480047 -0.008494407 0.0064175446 -0.0708547 0.016305564 0.020981712
-0.096034706 0.040005967 0.032580905 0.09957689 0.08079326 0.051354177 -0.08460619 0.0107038235
-0.01606316 0.062113643 0.058522273 -0.035258684 -0.039339446 0.08243235 0.04712087 0.011783995
-0.029872958 0.06406339 0.0051506767 -0.0567304 0.040314954 -0.070434555 0.041411694 0.059708197
0.054855272 0.10511103 -0.014978115 0.05986918 -0.13553111 -0.06780221 -0.09522915 -0.04564146
0.0048939534 0.09678549 0.021365153 0.035574287 0.044819977 -0.034542102 0.060820937 0.004564336
-0.04714969 0.018546574 -0.06146095 -0.06762566 -0.07495945 0.060096763 -0.038937114 0.0043781623
-0.12404693 0.027104216 -0.13062368 -0.12789589 0.07235718 0.077838175 -0.095230155 -0.0095390035
0.06921126 -0.027529765 0.014588126 0.049031597 -0.036545325 -0.06810253 -0.06820919 0.062703855
-0.07472549 -0.010941763 0.03057599 -0.106314816 -0.095120594 0.018476877 0.07466235 0.09121606
-0.008788145 0.104790606 0.062466376 0.0580671 0.12970138 0.048590247 -0.025715891 0.07945866
0.033500515 -0.057879407 0.015208818 -0.104269065 0.04335627 -0.023513341 0.057032485 -0.058581628
0.047452934 0.03921392 -0.07588295 0.013837103 0.008208692 -0.0051520253 -0.09822187 0.07200436

gru.bias_ih_l1 f4 [384]
00000000: f39c 55bd 90cb 2fbd cbb9 a03c 80ca 41bd
00000010: 6513 6cbd 38b3 81bd a0b2 21bc 35aa a13d
00000020: 65f4 093b 0093 343d a802 a3bd b332 8dbd
00000030: 7074 dfbd d840 40bd a3c8 203d e316 c2bd
00000040: f39f edbd 661d 94bd 5676 fdba 73bf dabd
00000050: 6d02 9f3d 4f08 223d ba48 51bc 2326 05bd
00000060: 1e35 dc3c e6e5 a4bd 44b8 f7bd 145e 983d
00000070: 9ff3 b83b 269f 82bc 94a8 a43c 129e 1d3d
00000080: 0bc2 1fbc fcb4 15bc 3e42 e5bd 23ee 223d
00000090: 1db2 b7bd 335f 843b 417e 6dbd 03e2 a23d
000000a0: 4f50 82bc 0f59 4c3d c285 7b3d 4c8d 10bd
000000b0: d4a9 23bc efd0 e1bb 3f13 e6bd 008b 8dbd
000000c0: 8ed5 a03d df06 59bd df18 24bd bc2f 90bc
000000d0: 80a9 773d 810d 813c b3b8 48bd 045b 783d
000000e0: d15b 89bd 1f44 9dbd b332 babc 69b4 f33c
000000f0: 3717 6bbd 88b1 4ebd 1e84 d5bd 8e38 ce3c
00000100: 0ad2 a6bc fba8 07bd 400e 8239 3b18 273d
00000110: 4272 b9bd 686d 863d 5a55 00be 0e32 17bd
00000120: 5fc0 353d c924 8fbd dee3 f8bc 591b 313c
00000130: 5bb8 c33c 7029 0f3c 50c0 c63b 8120 cf39
00000140: f01b 63bd 16d5 403d 7247 303d 5e11 37bd
00000150: 7f7f 84bd 0c4c f4bb 997d 583b 0f46 9ebd
00000160: 0fc4 3dbd 8db2 09bd d949 5cbd 26cb edbc
00000170: d406 8d3c 17d3 f13c dc08 81bd 1589 e93b
00000180: cf5e 803c db9f 923d c6ea a9bb c29c fc3c
00000190: ea3c 143d 2056 073c 6d59 94bb c959 ae3d
000001a0: c3ef aebd d72e 293d 5d6b c13d 00ee 953d
000001b0: 29bb 1d3d fb20 a13d 28ed 34bd 4406 7abd
000001c0: c337 9b3d 7f7d 8a3c 96bf 6a3d 5c2c 713d
000001d0: c82e cabd abc2 86bc 2f18 3f3c a151 d33c
000001e0: c3ca 11bd 9c65 c3bd 0703 3abd efab 0cbc
000001f0: 57fe d8bd 2091 a5bd e9f6 c2bd b9f3 56bd
00000200: be32 87be 81e3 3ebc e0bd 0cbe 3024 313a
00000210: 6be1 3e3a 006c 91bc 2fb5 75be 96f5 7abc
00000220: 4a67 2dbb ae5c 603d 3f93 28bd e54f 413c
00000230: e827 3cbd 7d56 bf3d a8ac 633d 8a45 d63c
00000240: ec23 453c c996 013e 42a7 34bd af94 47bd
00000250: ac00 58bc 4a27 113c 590c e33d 1437 8abc
00000260: 0309 00bd 87a8 a6bc 4ac6 a9bd 53ef dfbd
00000270: 3a0e 48bd 8c80 d13d d983 3e3c 5444 b6bd
00000280: 9508 01be a2e3 43be 51a3 403e 4bf1 ea3d
00000290: 5391 e8bc 0509 f3bc 3e87 babb 6247 eabd
000002a0: 26d7 953d f764 4d3e c45b e03c f4d9 85bd
000002b0: fdf7 f9bd 0a22 203d a6fd b2bd b70b 0e3d
000002c0: 7c23 213d f2cf 14bd ac37 31be bdb7 9abc
000002d0: 1c37 b3ba bfe2 21bd 8880 dd3d e6f7 a33d
000002e0: 3692 86bd e23d 98bd 92ae bc3c fb2b 723d
000002f0: 703b 0a3e 479f b33d 4eb6 96bd 84bd 0e3e
00000300: f934 293d 199d 223c 4f27 b93c 8674 48bd
00000310: 283d a0bd 3e1f c2bd 03c5 9e3d 30d4 d1bb
00000320: 16f3 b3bd ba35 d63d 9e4d 2e3e 9fb7 abbc
00000330: c13c e23d cfc6 873d 63bb 0a3d c682 e83d
00000340: 4afc 9c3c 73ca 2f3e 835b 3b3e ddf4 bbbb
00000350: 02e7 19be 8e55 003c 4dbb c73c 1a1d 513e
00000360: 51cd 1c3e a2d3 a4be 9f90 79bd daa4 1b3d
00000370: 3124 33bc 7e58 d53d 083f 093e ac70 6f3d
00000380: 6b32 953d 58d9 e3bd 38a7 d73c 7cbf bf3d
00000390: aa37 5d3d 1d14 953d 2a2c 0d3e f927 b5bd
000003a0: ba8d b8bc 4313 223e ee25 633e 95a5 41bd
000003b0: 98c8 98be f8e5 4ebc 11c0 f63d 1c35 be3d
000003c0: 0c03 183e b427 863d fa33 9a3d d1a4 103d
000003d0: 6882 563e ce45 62be e747 cf3d 50d7 debd
000003e0: cbbc 143e 1325 6e3e 51fb 6e3c 447d 8abc
000003f0: a525 13bd ce08 11bd 5a12 3ebd 07c6 023e
-0.05215163 -0.04291874 0.019619843 -0.04731226 -0.057635684 -0.063330114 -0.009869248 0.078937925
0.0021050212 0.044085503 -0.07959491 -0.06894436 -0.109108806 -0.04693684 0.039253842 -0.094770215
-0.116027735 -0.0723217 -0.0019337635 -0.10681047 0.077641346 0.039558705 -0.012773687 -0.032507073
0.026880797 -0.08051662 -0.12095693 0.07439819 0.0056442763 -0.015945029 0.020099916 0.038480826
-0.009750853 -0.009137388 -0.11194275 0.039777886 -0.08969519 0.004039669 -0.057981733 0.079532646
-0.015907435 0.04988962 0.06140686 -0.035291 -0.009989221 -0.006891362 -0.1123414 -0.06911278
0.07853232 -0.05298507 -0.04006278 -0.017600887 0.060464382 0.01575351 -0.049004268 0.060633674
-0.06706966 -0.07679009 -0.022729253 0.029749112 -0.057395186 -0.050462276 -0.1042559 0.025173452
-0.020363826 -0.033120137 0.0002480615 0.040794592 -0.09054996 0.06563836 -0.12532559 -0.03691297
0.044372912 -0.06989438 -0.030382093 0.010809743 0.023891618 0.008737907 0.006065406 0.00039506334
-0.055446565 0.047078215 0.043036886 -0.044694297 -0.064696305 -0.0074553546 0.0033033846 -0.07728206
-0.046329554 -0.033617545 -0.053781364 -0.029027533 0.01721517 0.0295196 -0.06300518 0.007126937
0.015670208 0.07159396 -0.005185458 0.030836467 0.036190905 0.00826028 -0.004527262 0.08513219
-0.08541825 0.041304436 0.09444306 0.073207855 0.038508568 0.07867619 -0.044171482 -0.06104113
0.07578995 0.016905544 0.057311617 0.058880195 -0.09872204 -0.016450247 0.011663481 0.02579576
-0.03559376 -0.09540865 -0.045413043 -0.008585914 -0.105953865 -0.08084321 -0.095197506 -0.052478526
-0.264059 -0.011650921 -0.13744307 0.00067574065 0.00072815147 -0.017751694 -0.23994897 -0.015317341
-0.002645927 0.054775886 -0.04115605 0.0117988335 -0.045936495 0.09342668 0.05558458 0.026156206
0.01203249 0.12655176 -0.044104822 -0.04872578 -0.013183754 0.008859465 0.110863395 -0.016871966
-0.031258594 -0.020344032 -0.08289774 -0.10934319 -0.048841693 0.102295965 0.011628115 -0.08899751
-0.1260093 -0.19129804 0.188123 0.11471804 -0.028389608 -0.029667387 -0.0056923917 -0.114393964
0.07316427 0.20058046 0.027387507 -0.06535712 -0.12205503 0.039094962 -0.08739786 0.03467914
0.03934048 -0.036331125 -0.17306393 -0.018886441 -0.001367304 -0.039522883 0.10815531 0.08006267
-0.06570856 -0.07433678 0.02303246 0.059123974 0.13499236 0.08770614 -0.073589906 0.13939482
0.041310284 0.00992515 0.022601752 -0.04893925 -0.07824165 -0.09478615 0.07752421 -0.0064034685
-0.08786599 0.10459466 0.17021796 -0.02096158 0.11046744 0.066297166 0.033870112 0.11353068
0.01916327 0.17167072 0.18296628 -0.005735977 -0.15029529 0.007832898 0.024381304 0.20421258
0.15312697 -0.32192713 -0.060928937 0.03799901 -0.010933922 0.10417269 0.13402951 0.05845706
0.07285007 -0.111254394 0.026324853 0.093626946 0.054008164 0.07279227 0.13786379 -0.08845515
-0.022528518 0.1582766 0.22182438 -0.047277052 -0.2984054 -0.012628071 0.120483525 0.092874736
0.14844912 0.065505415 0.07529445 0.03531343 0.20948184 -0.22096941 0.10121136 -0.10880911
0.14525144 0.2325633 0.014586286 -0.016905434 -0.035924572 -0.035408787 -0.04640422 0.12770854
