22040101112_BarchınoyKodırova/lstm/lstm_best.pth (torch, 492453 bytes, 9 tensors)

lstm.weight_ih_l0 f4 [400, 1]
000000 5b d9 51 bd 32 36 3c bd 2c 00 7d bd 6e 2c 84 3d
       -0.051232677 -0.045950122 -0.061767742 0.06453787
000010 ea b8 44 bd 94 6d 8e bd a1 25 ca 3d 95 c4 b5 3d
       -0.04802791 -0.06954494 0.098704584 0.08875386
000020 73 cd 24 bd ca ee 92 bd 97 86 63 3d 9e ff 58 bd
       -0.040234994 -0.07174452 0.055548277 -0.05297815
000030 51 d4 80 3a 74 a3 cd bd 94 e5 dc 3b 07 a0 8c 3d
       0.00098289 -0.10040942 0.006741235 0.0686646
000040 28 51 2c bd 42 49 c9 bc 91 c4 c3 bc 9a 42 b8 bc
       -0.042069584 -0.024571065 -0.023897441 -0.022492696
000050 57 53 eb 3c c1 19 92 bd 5a b8 63 3d da 72 2e 3d
       0.028726263 -0.071338184 0.055595733 0.04259
000060 30 d6 a7 3d c0 a4 58 bd 03 8e 0a 3c 3a 15 b7 3d
       0.0819515 -0.052891493 0.00845671 0.089395955
000070 4e 20 99 bd 22 49 21 3d 61 57 e8 3c fd 19 be 3d
       -0.07476865 0.039376386 0.028361978 0.092823006
000080 ac 90 96 3d 82 fb 32 3d a1 71 5b bb 0d 88 4b 3d
       0.07351813 0.043696888 -0.0033484476 0.049690295
000090 aa b2 1e 3d 55 67 a4 3d 77 46 41 bd 7d a0 27 3d
       0.038744606 0.080275215 -0.04718634 0.040924538
0000a0 ce cb bb bd 0f 98 91 bd 53 f6 d8 3d d5 16 f2 3c
       -0.09169732 -0.07109081 0.105938576 0.029551903
0000b0 fe 74 e5 3c 6a 43 4d 3d ff 2d 95 bd 9c 6c 67 3d
       0.028009888 0.05011312 -0.07284164 0.056500062
0000c0 96 ce b3 bd 3b 1b 1f bd c2 71 84 bc 67 27 75 bd
       -0.087796375 -0.03884433 -0.016167525 -0.05985203
0000d0 3d 13 98 3b 68 cb 55 bd ed a9 49 3d ce 66 3a bd
       0.0046409653 -0.052195936 0.04923432 -0.0455082
0000e0 69 e9 51 bd 88 0f 4f 3d e8 50 cc bd b9 0d 03 3a
       -0.051247988 0.05055192 -0.09976369 0.0004999298
0000f0 ce 0e c4 bc 8b ca e9 3b 8b bc b8 3d cf ac 07 bd
       -0.02393284 0.0071347407 0.09020337 -0.033123787
000100 83 d3 ad bd 86 ac b8 bd 06 a3 85 bd a0 a5 ad bd
       -0.08487608 -0.09017281 -0.06525235 -0.08478856
000110 82 4e 85 bc 10 37 0d bc 2e c5 9f bd 27 70 4c 3d
       -0.016272787 -0.008619085 -0.07801281 0.049911644
000120 d2 e8 c4 3a d7 77 d2 3d 2a 9a 15 bd eb 30 a6 3d
       0.0015022999 0.10276764 -0.036523975 0.08114799
000130 2d 0b a7 3d 29 37 b2 3d 91 72 48 bd c2 9c 94 bd
       0.081564285 0.08701927 -0.048937384 -0.07256462
000140 f6 1c f7 3c df 70 2e bd f3 4f 56 bc b4 90 c9 3c
       0.030165177 -0.04258811 -0.013080585 0.024605133
000150 3f ce a0 bd 58 9a 8b 3d 4d 96 c9 bc 8e 54 32 bc
       -0.07851838 0.06816548 -0.024607802 -0.010884417
000160 12 e8 6b 3d 8d c0 25 bd 94 f5 b1 bd 75 57 d3 3d
       0.057594366 -0.040466834 -0.086894184 0.103194155
000170 bf 74 c8 ba 14 54 93 3d 81 a3 a5 bd 26 0a 11 bc
       -0.0015293582 0.07193771 -0.080878265 -0.008852517
000180 79 26 4b bc 33 41 99 bd 7d 89 cd 3d 2b 2d 6b bb
       -0.012399309 -0.07483139 0.100359894 -0.0035885077
000190 43 2a 82 3d 92 bf b1 3d b4 b9 49 3d 4e b9 dd bc
       0.06355717 0.08679117 0.049249366 -0.0270659
0001a0 29 f4 98 bd 7e cc 48 3d 21 5c 47 ba 32 7d 9f 3d
       -0.07468445 0.049023144 -0.0007604976 0.07787551
0001b0 2d b3 b7 3d 0c 13 15 bd 89 51 f9 3c 0c f2 1f 3d
       0.08969722 -0.036395118 0.030434387 0.039049193
0001c0 9c 3f 46 3c bb 35 fe bb 61 8d a6 bd 41 f3 bd bc
       0.012100127 -0.00775787 -0.08132435 -0.023187282
0001d0 d2 32 af bd c3 cc 9b 3d ad 9f cd bd 7f aa be 3d
       -0.08554615 0.076074146 -0.10040221 0.09309863
0001e0 16 51 58 bd 0c 81 a0 3d 67 8a 01 bd 83 a3 60 bd
       -0.052811705 0.07837114 -0.03162613 -0.054843437
0001f0 f7 34 8e 3d 7f dc 63 3d 05 a0 ab bd 7f 90 ab 3d
       0.06943696 0.055630203 -0.08380131 0.0837717
000200 96 45 99 3b a8 92 0e 3d 4b 92 49 bd 28 16 05 bd
       0.0046774847 0.03480783 -0.04921178 -0.032491833
000210 e0 6d 6b 3d 56 49 97 3d e5 25 0a bd 0f 63 48 3c
       0.05747783 0.073870346 -0.033727545 0.012230649
000220 14 f8 56 bd 57 ca e4 3c 52 41 b4 3d 62 96 0e bd
       -0.05248268 0.027928514 0.08801521 -0.034811385
000230 90 3e 1b 3d f9 0f 9c 3c d2 d1 04 bc 10 57 bb bd
       0.03790146 0.019050585 -0.008106666 -0.09147465
000240 2d f1 72 3d da 63 a6 3d 81 e0 04 bd 98 40 b7 3c
       0.059312034 0.08124514 -0.032440666 0.022369668
000250 96 84 5c 3d af fc 5e 3d ef 1f a5 3d 9c 93 cb 3b
       0.05383738 0.054440197 0.080627315 0.006212665
000260 bd 5c c5 3b 46 dd 67 3d 74 56 00 3a ab 80 92 3d
       0.006023018 0.056607507 0.0004895695 0.07153448
000270 6c 68 c7 bc d0 c2 3b bd 39 a8 aa ba c8 51 21 bd
       -0.024341784 -0.045840085 -0.0013020105 -0.039384633
000280 e3 7b 90 bd 90 7e 47 3d 50 a5 2c bd be 3b ab 3d
       -0.070548795 0.048704684 -0.04214984 0.08361004
000290 1f 6e 68 bd 2c 7f 51 3d 39 76 46 bd 43 62 18 3a
       -0.056745645 0.05114667 -0.04845259 0.0005812982
0002a0 c9 94 c5 3d ab 36 9c bd f0 35 45 3c 2d f5 5f bd
       0.09647519 -0.076276146 0.0120367855 -0.054677177
0002b0 6b 35 7d bd 04 b3 0c 3d 81 6f 42 ba 49 40 5f bd
       -0.06181852 0.03435041 -0.0007417128 -0.054504666
0002c0 bf 4c a6 bd 03 b6 4b 3c 21 b2 9d bd d8 17 4f bd
       -0.08120107 0.012433532 -0.07699991 -0.05055985
0002d0 76 aa 90 bd 67 d2 c8 3c ad e5 3e bd 62 c3 88 bc
       -0.07063763 0.02451439 -0.046605755 -0.016694728
0002e0 4a ef e6 bc c5 46 0a 3c fe e9 d0 bd 79 91 77 3d
       -0.028190274 0.008439724 -0.102008805 0.060441468
0002f0 8e b4 94 bc 94 ea 92 bd c8 b6 21 bd d0 3a 18 3c
       -0.018152501 -0.071736485 -0.039480954 0.009291366
000300 2f 11 96 bc 94 94 86 bd 21 1f 29 bd 29 58 73 3d
       -0.01831874 -0.06571308 -0.041289452 0.059410248
000310 e7 e6 84 bc d6 01 8e 3d 66 f3 b4 3d 53 70 9b bd
       -0.016223384 0.06933944 0.08835487 -0.075897835
000320 a8 ea aa bc 81 22 69 bd ee ce 42 3d 11 75 8b 3d
       -0.020863846 -0.05691767 0.047560625 0.06809438
000330 78 59 d6 38 31 88 95 bd 55 a3 32 3d 5d c5 1d bd
       0.0001022098 -0.07301367 0.043612797 -0.0385183
000340 e4 4c c4 3d 20 4a 3a bd 0c a8 56 bc ce 42 dd bc
       0.09584978 -0.045480847 -0.013101589 -0.027009394
000350 4f cc bb 3d 40 3c ca bd 47 3b dc 3c 5f 76 6f bc
       0.09169828 -0.09874773 0.026883734 -0.014615624
000360 fd 2d 8c bd 25 74 d4 bd 7c fe 8c 3d 9e 97 5d bd
       -0.06844709 -0.10373715 0.068844765 -0.05409967
000370 2e 5d d2 bc 73 cd a3 bd 68 51 23 bc 99 12 cf 3c
       -0.025679197 -0.07998171 -0.009968139 0.025277423
000380 14 32 ca 3a de 34 4d bd 14 44 99 bd c0 21 7e bd
       0.0015426301 -0.050099246 -0.07483688 -0.062043905
000390 50 4d 2e 3d bc d4 2f 3d 86 7d 92 bc f6 6e 75 bd
       0.0425542 0.04292749 -0.01788212 -0.059920274
0003a0 e2 f2 97 3d 97 51 89 3d 20 cc a6 3d b6 1d c3 bd
       0.07419373 0.06705015 0.081444025 -0.09527151
0003b0 5a a6 08 3d ce 68 ae bd f2 cc ad bc d7 c6 2c 3c
       0.03336177 -0.08516084 -0.02121589 0.010545454
0003c0 96 d4 bc 3d bb 14 fb bc 40 93 fd bc 55 30 45 3d
       0.09220235 -0.030649533 -0.030954003 0.048141796
0003d0 13 17 6d bd df 38 3e 3d 66 1f a9 3d 3d 9a 9f 3d
       -0.057883333 0.046440955 0.08257942 0.077930905
0003e0 fa 40 91 3d 0d f7 8e 3c 34 af 5d 3d 81 34 41 bd
       0.070924714 0.017451787 0.054122165 -0.047169212
0003f0 61 e7 fc bb be 12 49 bd 26 78 c0 b9 ec d5 81 bd
       -0.007718012 -0.04909014 -0.0003671061 -0.063396305

lstm.weight_hh_l0 f4 [400, 100]
000000 46 ad cc bd 60 88 6a bd 57 eb 4a bd f5 b9 76 3d
       -0.09993987 -0.057258964 -0.049540844 0.060235936
000010 0a c6 be 3b ea 98 03 bb 6d 71 f8 bc 61 4c 1b 3d
       0.005821948 -0.0020080158 -0.030327523 0.037914637
000020 43 22 b6 bc 52 83 ab bc 4f 81 11 bc 2d 83 12 bd
       -0.022233134 -0.020936642 -0.008880927 -0.03576963
000030 f4 c4 8f bc 8d 7c 1d bd 61 35 00 3d 5c 14 12 bd
       -0.01754997 -0.03844886 0.031300906 -0.035663947
000040 6a b6 f6 bc 2c bb bf bd b1 14 ae bc f3 9a 65 bd
       -0.030116279 -0.09361872 -0.0212501 -0.056055974
000050 d5 49 ce 3c 06 41 9f 3d e7 cd bf bd b5 79 1f 3d
       0.02518169 0.07776074 -0.09365445 0.03893443
000060 05 e0 ef bc 99 f1 ad bd 4d a1 13 bd 94 55 87 bd
       -0.029281626 -0.08493347 -0.0360425 -0.066081196
000070 c9 64 9b 3d e5 46 85 3d 79 e4 a7 3b 08 02 81 bc
       0.075875826 0.06507663 0.0051236716 -0.015748039
000080 89 f3 21 3d 95 c8 a9 bd ca 06 96 3d b5 f8 ae 3d
       0.039538894 -0.08290211 0.07325514 0.08543531
000090 21 a2 11 bd 38 28 d2 bd ef fb aa 3c 28 c6 ff bc
       -0.03555501 -0.10261577 0.020872084 -0.031222418
0000a0 e0 bf 45 3c 1d b4 d1 3d f0 c3 c3 3d 07 e0 5e 3d
       0.012069672 0.10239432 0.095588565 0.054412868
0000b0 cc 56 a5 3b 81 56 c2 bd a8 eb 9f 3c 3d 21 37 bd
       0.0050457474 -0.094891556 0.01952155 -0.044709433
0000c0 5b 3d 90 3c 69 79 9d bd 56 f7 87 bc e1 18 14 bd
       0.017607382 -0.07689173 -0.016597431 -0.03615654
0000d0 ec 43 fd b8 59 50 7a bd 72 d2 28 bd 09 1b 1e 3c
       -0.000120766315 -0.06111178 -0.04121632 0.00965
0000e0 ee b1 9c bd eb 54 9e 3d 48 3c 9f bd 7e 9d 85 3c
       -0.07651125 0.077310406 -0.077751696 0.01631045
0000f0 34 78 f6 bc 86 3d 84 3b 01 e6 1e bd 3d 30 85 bd
       -0.030086614 0.0040356545 -0.038793568 -0.06503341
000100 34 05 5e bd a8 68 b7 3d 03 5b a9 bd 29 4d f9 bc
       -0.05420418 0.089555085 -0.08269312 -0.0304323
000110 c7 f0 01 bd de a3 62 bd 8a a1 c9 bc 30 4b f9 bb
       -0.031723764 -0.055332057 -0.02461316 -0.00760784
000120 21 fc cc bd 05 2d a6 bc b2 45 9d bd b4 e3 24 3b
       -0.10009027 -0.020285139 -0.07679309 0.0025160136
000130 99 8f 36 3d 68 80 a4 bd fb 12 10 bd cb 7e bf bb
       0.04457054 -0.08032304 -0.03517435 -0.0058439723
000140 d9 c7 5e 3d ad 58 aa 3c b8 75 41 3d 60 65 6e bd
       0.05438981 0.020794237 0.047231406 -0.058202147
000150 ab 98 5a bd 6b c7 d0 bb 45 49 3a bd 6a e2 9d 3d
       -0.05336825 -0.0063714287 -0.04548003 0.07709201
000160 d0 61 95 bd f1 c7 ac 3d 94 9e 74 3d 32 dc 6c 3c
       -0.07294047 0.08436573 0.059721544 0.0144567955
000170 e3 b9 eb bc 2a 01 d5 bc d8 5b 48 3d 09 9f a3 bd
       -0.028775161 -0.026001532 0.048915714 -0.07989318
000180 90 69 58 3b 20 2e 91 3d 57 2b 13 bd 98 36 dc 3c
       0.0033021905 0.07088876 -0.035930004 0.026881501
000190 ad 0e a0 3c 78 3a 0f bd 2f 3f a4 bd e5 b4 a0 3b
       0.019538248 -0.03496787 -0.08019864 0.004904377
0001a0 db 6b 26 bd 6a 08 82 bd bc ab 9c 3d 2a 48 c0 bc
       -0.040630203 -0.06349261 0.07649943 -0.02347191
0001b0 02 8b c8 bd 08 9c ac b7 98 61 3f 3d 13 0f 9a 3d
       -0.09792139 -2.0576656e-05 0.046723932 0.075224064
0001c0 11 75 a5 3d 0d 8c c7 3d 4a 82 59 bd 1d 6c be 3d
       0.08078969 0.097435094 -0.05310277 0.09297965
0001d0 19 5a 8b bd 5a 8f 1c 39 03 20 68 bd 2e 5e b9 bd
       -0.06804294 0.00014930722 -0.056671154 -0.090511665
0001e0 9b 93 c5 3d dc a8 30 3d 99 99 03 3c 50 91 85 bd
       0.09647294 0.043129787 0.008032226 -0.06521857
0001f0 a2 32 d9 bd 99 94 02 3c e8 46 67 bd ee 59 ba 3a
       -0.106053606 0.007969999 -0.056464106 0.0014217475
000200 6f a6 b3 bd b2 1e bb bd b8 c1 dc bd c7 ec a8 3d
       -0.08771979 -0.09136714 -0.107791364 0.08248287
000210 80 14 3a bd 38 39 1d bd c2 94 ac 3c 2d cc 97 bd
       -0.045429707 -0.038384646 0.021067027 -0.0741199
000220 52 99 77 3d 60 4e e0 bc 66 6d ae bd 61 99 d0 3d
       0.060448952 -0.027381122 -0.0851696 0.10185505
000230 1f b7 b9 3d f3 ff 2a bd de ef 8a bd 7a 2f 7d bd
       0.09068131 -0.041748 -0.06784032 -0.061812855
000240 d0 66 1d bd b2 4d 81 bd a3 7a 9d 3d 61 bf a4 bc
       -0.038428128 -0.06313647 0.07689407 -0.020110788
000250 4f 18 b3 3d b7 ee 8a 3d 4e 46 ce bd df 37 d8 3d
       0.08744871 0.067838125 -0.10072003 0.105575316
000260 0b 1b 92 3d a4 cc b4 3d 09 d7 25 3d 2d ec c3 bd
       0.07134064 0.088280946 0.040488277 -0.09566531
000270 67 76 c0 bc f8 32 40 3d 5a 82 03 bd da 0f 22 bc
       -0.023493959 0.046923608 -0.032106735 -0.009891475
000280 58 7d 94 3d c6 da 74 3c 23 8a 93 bd cb d8 92 3d
       0.0725047 0.014944738 -0.07204082 0.07170256
000290 ec 7c f5 bc b1 7a c9 bd 02 96 0b bd 50 3d 1b 3d
       -0.029966794 -0.09837855 -0.034078605 0.03790027
0002a0 b2 68 27 bd 09 3c 83 3d f1 53 b0 3d dc 54 82 bc
       -0.04087133 0.06407935 0.086097606 -0.015909605
0002b0 c5 6c 68 bd db 22 d4 bd 09 e7 af 3b 90 5a 9b bc
       -0.056744356 -0.10358211 0.0053681177 -0.018964082
0002c0 a0 f3 0e bd 89 f2 b9 3d f1 ee 6b 3d 95 3e a3 3d
       -0.034900308 0.09079463 0.05760092 0.07970921
0002d0 05 5e 49 3d 0d 79 85 bd e2 d4 0b bd d8 e5 91 bc
       0.04916193 -0.06517229 -0.034138568 -0.017809793
0002e0 7f 03 90 bd 6c ec 17 bd 57 60 99 3b 6c b5 76 bd
       -0.07031917 -0.037090704 0.004680674 -0.06023161
0002f0 a2 00 28 3d 94 85 b8 3d 0d 0a 99 3d 4d 62 0b 3d
       0.04101623 0.09009853 0.0747262 0.034029294
000300 6f e8 9d 3d 69 6d a5 bd 29 39 7f bd 46 87 da 3d
       0.07710349 -0.08077509 -0.06231037 0.106703326
000310 7f ae 4e 3c c1 c5 2d 3c 0b 8a 62 bd d6 d7 cf 3d
       0.012614845 0.01060623 -0.05530743 0.10148589
000320 fc f8 df 3c f3 f9 bb 3d 5b dc a9 3d ab 0f c5 3d
       0.027340405 0.091785334 0.082939826 0.09622129
000330 94 01 2c 3d e0 85 ac 3d 76 7a 9c 3d 6c 38 ac 3b
       0.041993693 0.08423972 0.07640545 0.0052557494
000340 86 be 6c 3d e9 ed 9e 3d d1 0f 54 bd 71 74 96 3d
       0.057798885 0.077602215 -0.051772896 0.07346428
000350 79 37 7d 3c 94 fa 8a bd 8e 60 c0 bd 91 5c db bc
       0.01545512 -0.06786075 -0.09393416 -0.026777538
000360 ec 18 a4 bd 81 29 a5 bd 51 45 06 bc e5 61 b3 3d
       -0.08012566 -0.08064557 -0.008195237 0.08758906
000370 13 b5 96 3d cb ec af bd 32 16 dc bc b8 dd ec 3c
       0.07358756 -0.085900865 -0.026866052 0.028914317
000380 b1 6d 4a bd ba 69 d3 3b d1 04 4e bc 05 13 e1 bc
       -0.049421016 0.0064518126 -0.0125743905 -0.02747489
000390 a6 60 c3 bd 73 b4 47 bd 79 ef cb bd 7b 8e 80 bd
       -0.095399186 -0.048756074 -0.09957785 -0.06277176
0003a0 2e ca 45 bd e6 39 93 3d 1f 0d ac bd c8 46 ec bc
       -0.048288517 0.071887776 -0.0840094 -0.028842345
0003b0 6d 7e a4 3d 32 5e c4 bc 25 f7 3c bd 8f 30 dc bc
       0.08031926 -0.023970697 -0.046134133 -0.026878623
0003c0 d2 b0 28 bd 12 91 cd bb d0 7a a4 bc ba d8 2c ba
       -0.041184254 -0.0062733972 -0.020078093 -0.0006593574
0003d0 5d 10 28 bd d8 6d ae 3d 43 e9 90 3d de 7f 10 bd
       -0.04103123 0.08517045 0.07075741 -0.035278194
0003e0 0c 40 cc 3d c8 4a 3e bc 72 26 77 3d 3f 59 22 bd
       0.099731535 -0.011614509 0.0603394 -0.039635893
0003f0 8d d9 07 3d 93 cc ad bd 2c 36 89 3d 1e f0 28 bd
       0.033166457 -0.08486285 0.066997856 -0.04124462

lstm.bias_ih_l0 f4 [400]
000000 63 c0 ba 3d 05 9b 98 3d 44 23 99 bd 85 6e 77 bd
       0.09118726 0.07451443 -0.074774295 -0.060408134
000010 24 10 77 3d 84 ac 71 bc 5e ea b3 3d 85 67 db 3d
       0.060318127 -0.014750604 0.08784936 0.10713104
000020 03 25 46 3d fb 57 a4 3d 35 46 0d 3d e5 1a 45 3d
       0.04837514 0.080245934 0.034490783 0.04812135
000030 d9 22 87 bd df d5 2a bd 75 44 a2 3d 08 88 75 bb
       -0.065984435 -0.04170787 0.079232134 -0.0037465114
000040 77 f3 9b 3d bb 38 b1 bd 10 2d ab bd 91 b8 a2 bd
       0.076147966 -0.086533986 -0.08358204 -0.079453595
000050 2e 60 80 bd da 31 a6 3d c9 84 94 3d 47 49 b2 bd
       -0.06268345 0.08114977 0.07251889 -0.08705383
000060 a6 14 85 3c ae f9 0f 3d a4 60 97 bd 5c be f2 bc
       0.016245198 0.035150222 -0.073914796 -0.029631786
000070 36 d6 3b 3d 22 aa 26 3c d2 9a 19 bd 02 3b ab bd
       0.045858584 0.010172399 -0.037501164 -0.08360864
000080 d4 d0 c9 bd 76 8b 9b bd 40 d1 8c bc 3a 9d 90 3c
       -0.09854284 -0.075949594 -0.017189622 0.017653096
000090 dc 6b d1 3d 39 9b 6e bb 2d 39 a3 bd 99 45 03 3d
       0.10225651 -0.0036408438 -0.0796989 0.032048795
0000a0 49 75 b1 3d 10 88 4f 3c d5 bd 65 bd 1e 65 9b 3d
       0.086649485 0.012666717 -0.05608924 0.07587646
0000b0 f3 a4 35 3d 4c 77 89 3c 24 fb 48 3c 53 21 89 bd
       0.04434676 0.016780518 0.012266908 -0.06695809
0000c0 9f 14 1a bd c7 ac 16 3d 0f c3 ba bd f9 fc b5 bd
       -0.037617322 0.036785867 -0.09119236 -0.08886141
0000d0 d8 b3 e0 3c 59 eb a5 bd 8b 93 3d bc 95 69 cd 3d
       0.027429506 -0.0810153 -0.0115708215 0.10029904
0000e0 e1 62 a5 3d 39 46 88 3d fe da 70 3d 45 2c 8b 3d
       0.080755 0.06654019 0.058802597 0.06795553
0000f0 31 e8 d6 3c d8 dc 28 3c 62 c0 0f 3d f7 13 0b bc
       0.026233764 0.0103065595 0.03509558 -0.008488647
000100 a4 ce a8 bd fd 16 ab bd 1a 43 7a 3d 90 a8 e0 3b
       -0.082425386 -0.08353994 0.06109915 0.0068560317
000110 76 9b 69 3d a4 64 ee bc 07 a4 37 3d 34 3a 19 3d
       0.057033025 -0.029100724 0.044834163 0.037409022
000120 22 e8 11 bd d7 9d 21 3d 6c f1 6c bc 71 40 07 3d
       -0.03562177 0.03945717 -0.014461856 0.03302044
000130 6f 3d 6d bd 1f ed bd 3d fb 26 fd 3c 84 88 6b bd
       -0.057919916 0.09273743 0.030902376 -0.05750324
000140 aa 43 b2 bc de eb 7f bd 1e a3 a1 bc ff 3f ac bc
       -0.02176078 -0.0624808 -0.0197311 -0.02102661
000150 93 93 c2 3d e2 e3 32 bd 4b 42 ae bc f6 f5 b8 bc
       0.09500804 -0.043674357 -0.021271845 -0.02257822
000160 a9 17 2a bc 6a b6 c8 3d 14 1d 29 3d 4b b2 9f bd
       -0.010381618 0.09800418 0.041287497 -0.077976786
000170 84 c9 8c 3d 6e eb 97 3d 21 a1 91 3d 54 4a c4 b9
       0.068743736 0.074179515 0.07110811 -0.00037439412
000180 5a 23 8f bc 49 1c b5 bc c0 52 73 3d bc 09 b6 3d
       -0.017472912 -0.022108214 0.05940509 0.088885754
000190 a0 39 da 38 a9 bb aa 3c 4b 7a 06 bd 26 52 a2 bd
       0.000104057835 0.020841436 -0.03283147 -0.07925825
0001a0 d1 98 f7 bc 76 18 9f 3d db 5e b1 bd 0a 7c 0d bd
       -0.030224236 0.077683374 -0.0866067 -0.03454212
0001b0 df 0b 39 bd 40 88 28 3d cc c1 01 3b 0f 5d 27 bd
       -0.045177337 0.041145563 0.001979935 -0.040860232
0001c0 05 2b ab 3d f8 53 19 bd 92 7d ae 3c cb 9d a9 bd
       0.08357815 -0.037433594 0.021300111 -0.0828205
0001d0 6d 4d c0 bd 2b 8f b2 3d 24 16 d1 bd 55 1b 39 bd
       -0.09389768 0.087187134 -0.10209301 -0.04519208
0001e0 61 7f d1 3d a7 6e c1 3d b2 6f 4f bc 90 27 82 bc
       0.10229374 0.094449334 -0.012660908 -0.015888005
0001f0 99 f5 80 bd 0c 72 dc 3d a5 5e 96 bd 0c a6 2f 3d
       -0.06296844 0.1076394 -0.07342271 0.042882964
000200 4e 2c f7 bb b9 09 8a 3d e9 b2 82 3d cc 98 b8 3c
       -0.0075431233 0.06740136 0.06381781 0.022533797
000210 27 fb 8c bd 16 51 d1 3c ac 6d 64 bd 8d 1f 80 3d
       -0.06883841 0.02555136 -0.055768654 0.06256018
000220 94 bc 65 bd 24 60 21 bd db b7 82 bd 90 bb 92 3d
       -0.056088045 -0.039398327 -0.06382724 0.07164681
000230 d4 57 8f 3d de 9a 2a bd c1 31 5b bd 5b 1b 8a 3d
       0.06999174 -0.0416516 -0.053514246 0.06743499
000240 b5 c8 49 bd 44 41 e0 3c 67 15 7a bd 67 3d 9a 3d
       -0.049263675 0.027374871 -0.061055567 0.07531243
000250 5a 07 0b bd 1f 90 cf 3b de 16 bc bd 97 63 6f 3d
       -0.033942558 0.0063343192 -0.09184049 0.058444586
000260 f6 15 c5 3d 74 7b 91 3d 62 95 8a 3d 1f 4e aa 3d
       0.09623329 0.07103625 0.06766774 0.08315682
000270 6c de 64 3d c7 ae b5 ba f2 47 09 3d e0 e7 f7 3c
       0.05587618 -0.0013861292 0.033515878 0.030261934
000280 e3 dd d1 3c f8 75 e1 bc 23 f8 74 3c 3d 8c b9 bd
       0.0256185 -0.027522072 0.0149517385 -0.090599515
000290 ce 14 65 bd cb d5 f7 bc 34 6e 37 3d dc a7 76 bd
       -0.055928044 -0.030253312 0.044782832 -0.060218677
0002a0 40 62 03 bd a9 e9 cf 3d cd 00 90 3d 2e 49 aa 3d
       -0.03207612 0.10151989 0.07031403 0.08314739
0002b0 0e 8f 34 3d 08 fa 97 bd e2 01 ca 3c 55 3b a9 3b
       0.04408174 -0.074207366 0.0246591 0.0051645436
0002c0 d9 e1 6c bc e8 cc 82 3d f3 5b 72 bc e3 f8 5b bd
       -0.014458143 0.06386739 -0.01479243 -0.053704154
0002d0 c1 51 a5 3d 83 c1 6a 3d 51 40 09 bd 51 4a d1 bc
       0.08072234 0.057313453 -0.033508603 -0.025548132
0002e0 29 fc fc 3c 69 b0 6e bd aa f7 82 3d 95 f7 a9 3d
       0.030881958 -0.058273707 0.063948944 0.08299176
0002f0 64 13 a0 3d 78 d1 b2 3d e8 05 e0 3a f5 c8 6a bd
       0.078161985 0.08731359 0.0017091604 -0.057320554
000300 80 6d 26 3c a5 c7 b6 3d 21 f9 28 3d c8 06 ab 3c
       0.010157943 0.08924798 0.041253213 0.020877257
000310 dc eb 10 bd 48 d5 2d bb de 60 a5 3d 31 61 f0 bc
       -0.035381183 -0.002652483 0.080751166 -0.02934322
000320 19 0b 57 bc 3e 3a af 3d 84 14 df bc a2 2f 0b 3d
       -0.0131252045 0.08556031 -0.027231462 0.033980973
000330 5a 8f 5d 3c 66 59 d6 bd a3 31 89 bc 06 3c da bd
       0.013522947 -0.1046627 -0.016747301 -0.1065598
000340 df 45 7b bd 76 06 b1 bd e6 de b1 bd 36 c8 c0 bc
       -0.06134593 -0.086438105 -0.08685093 -0.023532968
000350 39 fd e3 3c 84 fd a8 3d 05 17 93 bd 4e 7c 0a bd
       0.027830707 0.08251479 -0.07182125 -0.033809952
000360 06 6b b7 bd 90 d2 a3 bd 20 e3 19 3d 7c 3f bb bd
       -0.0895596 -0.07999146 0.03757012 -0.09142968
000370 68 35 5e 3d 43 e3 94 3c 19 e6 75 3d a9 2b 93 bd
       0.05425015 0.018174773 0.06003389 -0.07186062
000380 d3 b0 a6 bd 70 88 45 3d c3 f1 5d 3d 0e bb b7 bd
       -0.08139195 0.04822582 0.05418564 -0.08971225
000390 b3 ae 98 3d 5c e5 d3 3d 38 96 82 bd 8f 4a ed 3c
       0.07455196 0.10346481 -0.06376308 0.028966216
0003a0 13 3a 99 bd 58 b5 fc 3c 64 0c 92 bc 8a ab 46 3d
       -0.0748178 0.03084819 -0.017828174 0.048503436
0003b0 13 29 b1 bc e0 85 9d 3d f0 31 82 3d 5c 68 9c bd
       -0.021626031 0.0769155 0.06357181 -0.076370925
0003c0 58 9b 21 bc c7 7d 8c 3c 0f c6 45 bd d2 11 53 3d
       -0.009863697 0.017149819 -0.048284587 0.051530667
0003d0 32 58 4a bd 64 ad b7 3d 4d 0c c9 bd 6b 2a 9f bc
       -0.049400516 0.089686185 -0.09816799 -0.019429406
0003e0 87 1f 51 3d 7c 9a 1a bd 92 aa 81 bd 47 3a 9e bd
       0.051055457 -0.037744984 -0.06331362 -0.07725959
0003f0 1b 46 c0 bd 40 58 55 3a 83 cc 87 bd ae 1d a2 bd
       -0.093883716 0.00081384555 -0.066308044 -0.07915817

lstm.bias_hh_l0 f4 [400]
000000 46 91 d0 bd 07 df d4 3d 8e e9 a6 3d 54 49 cd 3c
       -0.10183959 0.103941016 0.08150016 0.02505938
000010 36 8f 4a 3d b5 2e 96 3d 60 c3 89 3d 08 0c 84 bd
       0.049452983 0.073331274 0.06726718 -0.06447607
000020 16 4a 3e 3d 3a d5 9f bd a6 42 2d bd 17 07 29 3d
       0.046457373 -0.078043416 -0.04229989 0.041266527
000030 bc 46 dd 3c 81 e0 b0 bd 0f 04 43 bd 7e 4c 2e 3d
       0.027011268 -0.08636571 -0.047611292 0.042553417
000040 16 04 49 3d 89 8b 3c 3d de eb 93 3d 4f e5 6a bd
       0.049076162 0.04603151 0.072227225 -0.057347592
000050 10 90 21 bc b6 b9 79 3d 00 3c b3 bd 40 27 91 3d
       -0.009861007 0.060968123 -0.087516785 0.070875645
000060 50 09 fe bb 25 35 90 bd 94 ba 90 bd 7e 6a a5 3d
       -0.007752575 -0.070413865 -0.07066837 0.080769524
000070 73 c7 1c 3d 25 f0 9d 3c 26 39 ba 3c 84 8a 7e 3d
       0.038276147 0.019279549 0.022732329 0.062143818
000080 72 7e b2 bd e7 bf ad bb b0 5b 84 3d 15 ba 94 3d
       -0.08715524 -0.0053024176 0.064628005 0.07262055
000090 21 6b ac 3d 2a d6 03 3b 19 93 20 bd c2 4f 2b 3d
       0.08418871 0.0020116665 -0.039202783 0.04182411
0000a0 2f 37 ba bd 56 4a 3f bc 2f 15 af bb 7c 7c 8c 3d
       -0.09092557 -0.011675438 -0.0053431015 0.06859681
0000b0 db 8d 83 bd 12 b9 6f bd 45 3c 8e bd 28 f6 6b 3d
       -0.06423541 -0.058526106 -0.06945089 0.0576078
0000c0 58 c4 0c 3d 2a f0 27 bd 8b 11 49 3d 48 da 86 3c
       0.034366935 -0.041000523 0.049088996 0.016461506
0000d0 9e 0b d7 3d bb 21 a3 bc 20 68 a7 bc d4 1d 47 bd
       0.10500263 -0.019913545 -0.020435393 -0.04861243
0000e0 56 22 db 3d f6 ba b3 bd b7 51 a8 bd 38 8b 6f bb
       0.106999084 -0.08775894 -0.08218711 -0.0036551487
0000f0 0a 69 e6 3a dd f7 b2 3d d7 90 b3 3d 33 9f 04 3d
       0.0017578912 0.087386824 0.087678604 0.032378387
000100 61 e5 88 bd 84 ba a7 3d f7 eb 56 3d c3 53 24 3d
       -0.066843756 0.08189872 0.052471127 0.040118944
000110 ce 3e b3 3d dc 44 8c 3d f7 92 59 3d 32 f1 88 bd
       0.087522134 0.068490714 0.053118672 -0.06686629
000120 41 95 45 3d 0f 27 b9 bd 4b d6 38 3d 3f f6 92 3d
       0.048238043 -0.09040653 0.04512624 0.07175874
000130 26 0c 66 3d 94 d3 9d bc 47 b6 86 3d 6d 19 8a 3d
       0.05616393 -0.019265927 0.065777354 0.06743131
000140 d1 87 41 3d 8b c7 d9 3d 73 87 a8 3d 60 52 87 3d
       0.047248665 0.10633763 0.0822896 0.06607509
000150 a6 97 86 3d 86 fe 0d bd 06 7c 86 3d a8 93 bc bc
       0.065718934 -0.03466656 0.06566624 -0.023019627
000160 c5 61 00 bd 2a 31 58 bd 09 f1 54 bd bf b6 6e bd
       -0.03134324 -0.05278126 -0.05198768 -0.05827975
000170 34 4b 6c bd 1a 2c 02 bc 4b 80 ba 3d 2d 10 6c 3c
       -0.057688907 -0.007945085 0.09106501 0.0144081535
000180 ca e3 82 bd 4a 00 94 bc 32 d9 42 bb ba 03 bf 3d
       -0.063911036 -0.018066544 -0.002973151 0.09326883
000190 29 2a 35 bd 95 6a c3 3c 15 0b aa 3c a1 ba 8e 3d
       -0.04422966 0.023854533 0.020757237 0.069691904
0001a0 62 88 3a bc 85 5a d7 bb e4 aa e9 bc 1d 13 1b bd
       -0.011385055 -0.00657207 -0.02852387 -0.037860025
0001b0 65 9b 89 bd f0 2c 44 3d d2 d9 59 3d 11 57 c3 bb
       -0.06719092 0.04789442 0.053186245 -0.005961307
0001c0 e0 fd aa bd 36 91 c0 bc f0 13 03 3d 60 10 81 3b
       -0.08349204 -0.023506742 0.032001436 0.0039387196
0001d0 65 60 98 bd 5c 8c 88 3d 1c b7 11 bb 22 93 d4 bc
       -0.07440261 0.066673964 -0.0022234386 -0.025949065
0001e0 5b ec be 3c 56 b1 ce 3d 2c 27 ff bc 2c 84 7d bd
       0.023306062 0.10092418 -0.031146608 -0.061893627
0001f0 38 57 3e 3d 8f a5 b4 3d 0e 8f da bb 63 ef a6 bd
       0.046469897 0.0882064 -0.0066698855 -0.08151128
000200 3e e2 41 bd 81 f3 56 3a 40 d4 67 3d 19 4b 8f bd
       -0.047334902 0.0008199737 0.0565989 -0.069967456
000210 70 6c b9 bd aa 48 e6 bc 17 0d de 3d 2a 32 a7 bd
       -0.09053886 -0.02811082 0.108423404 -0.08163865
000220 70 31 e6 39 15 23 a1 3d 4e 2d b0 bc 23 f3 70 bd
       0.00043905852 0.078680195 -0.021505978 -0.058825623
000230 a0 57 b6 3d ac df 75 3d ef e0 21 3d 42 00 8e bd
       0.08903432 0.060027763 0.039521154 -0.06933643
000240 1d cb ec bc d2 f5 68 3d 23 67 79 3d bd 5f aa 3c
       -0.028905446 0.056875058 0.060889374 0.020797605
000250 17 81 a5 3d 70 5c b0 3d 41 43 db bc 5e e7 c0 3d
       0.080812626 0.08611381 -0.026765468 0.0941913
000260 ca 00 c6 3d d2 98 a8 bc c8 c0 68 3d 7c 5b 46 3d
       0.09668119 -0.020580683 0.056824476 0.04842709
000270 d6 02 f9 bc 77 4b 32 3d e0 43 cc 3d 0f 5f 6b bd
       -0.03039686 0.043529 0.09973884 -0.0574637
000280 6c a1 c0 3d bd 91 86 bd 28 17 67 bc 41 c1 c5 bc
       0.09405789 -0.06570766 -0.014104642 -0.024140002
000290 89 f5 6e 3d 94 fe 7c 3d 69 3a 28 bd 2a ee 30 bd
       0.05833963 0.061766222 -0.04107133 -0.04319588
0002a0 c3 11 a4 3d 59 ea 95 bd 4b 2f 74 3d c1 73 96 3d
       0.080112 -0.07320089 0.059615415 0.07346297
0002b0 3b 1b b4 bd 27 f7 31 bb 2b 76 42 3c d8 b1 9d 3d
       -0.08794256 -0.002715537 0.011868994 0.07699937
0002c0 29 8f 9b bd c5 b8 33 bd e4 9b 20 bd 6f d0 52 3d
       -0.07595665 -0.04387738 -0.03921117 0.05146831
0002d0 cb 22 60 3b 7e dc 04 3d 31 f1 ef bc b3 bc ba bd
       0.0034200426 0.03243684 -0.029289814 -0.09118023
0002e0 28 48 67 bd 90 eb 0a bd 07 a3 79 bd 34 e7 71 bd
       -0.056465298 -0.033916056 -0.06094649 -0.059058383
0002f0 7a 57 5a 3d 3a 16 eb 3c 52 c4 c1 3c 9b 80 20 3d
       0.05330608 0.028697122 0.023653183 0.039185148
000300 85 87 0f bd e1 b7 73 3d 32 70 d2 bc 1c cf 33 bd
       -0.03504135 0.059501532 -0.025688265 -0.043898687
000310 7e b9 3e bc 17 17 a4 bd 61 ad b9 3d 51 0d 30 3c
       -0.0116409045 -0.080122165 0.090662725 0.010745362
000320 e9 30 88 3d 7e 7d cf bd f3 fd 00 3d d4 e6 60 bd
       0.06649954 -0.101313576 0.031492185 -0.054907635
000330 0d 50 01 bd f1 97 a1 bd f7 6c d8 bd 8a c3 d7 bd
       -0.031570483 -0.07890309 -0.105676584 -0.10535343
000340 09 5c 4b bd be 62 a6 bd cd 0c 16 bd a0 07 b8 3d
       -0.04964832 -0.08124302 -0.0366333 0.08985829
000350 66 34 c2 3c 11 5d dc 3c 63 1f 82 3d a9 3f c4 3d
       0.023706626 0.026899846 0.06353643 0.09582455
000360 2d 50 bb 3d 5d a8 59 3c ad 3b 14 bd 94 36 5a 3d
       0.09146152 0.01328477 -0.036189724 0.053274706
000370 f8 8e 97 3d 4a b6 e7 3a 66 e3 f9 bc 63 f6 98 3d
       0.07400316 0.0017678228 -0.03050394 0.074688695
000380 e3 49 17 bc 86 7b d5 bd 1a 88 c3 bd d6 81 b9 bd
       -0.009233925 -0.10423951 -0.09547444 -0.09057967
000390 c6 e9 41 3d 75 5c e7 bc 0d 24 91 3d 58 e4 d5 3d
       0.047342084 -0.02824233 0.07086954 0.10443944
0003a0 56 1c 06 bd 3d a5 c9 3d b7 21 78 3c 1d 5e 25 bd
       -0.032741867 0.0984597 0.015144757 -0.040372957
0003b0 b8 bb ac 3d 79 44 38 3d 76 f3 b2 3d c5 fd 84 3d
       0.08434242 0.044987176 0.08737843 0.06493715
0003c0 1b db 38 bd 6d 01 24 bd a6 19 7f bd 5d 4a 97 3d
       -0.04513083 -0.040040422 -0.06228032 0.073872305
0003d0 28 7f 66 bd 88 85 b8 bd e2 81 b6 bd 2c 10 70 bb
       -0.05627361 -0.09009844 -0.08911492 -0.0036630733
0003e0 d9 a1 d3 3d 49 ed 22 bd 6a 9b 6d bd 66 1e d6 3d
       0.10333604 -0.039777074 -0.058009543 0.10455017
0003f0 65 27 16 bd 66 8a 2d bd 5f 76 03 3d 14 1e 9a 3d
       -0.036658663 -0.042368315 0.03209531 0.07525268

lstm.weight_ih_l1 f4 [400, 100]
000000 54 68 d6 bd 22 fe 5c bd d0 9d 5a bd 89 50 a8 3d
       -0.10469118 -0.053953297 -0.053373158 0.08218486
000010 77 7a ea 3c d4 4d 2e bd ec 0a a5 3d b4 ff a5 3d
       0.028622849 -0.04255469 0.08058724 0.08105412
000020 65 1c 9f 3c 6d 93 eb 3c f2 9d b6 3d 02 c0 d3 bd
       0.01942272 0.028756822 0.089168444 -0.10339357
000030 54 43 f7 3c 12 c5 30 bd fc dd d1 bd 38 c5 66 bd
       0.030183472 -0.04315669 -0.10247418 -0.056340426
000040 48 8f 63 bd 9a 2d 3f 3d 02 4d 9f 3c e9 c3 b8 bd
       -0.055556566 0.04667435 0.0194459 -0.09021742
000050 9d 59 08 bd 72 d0 2a 3d c3 dd 1e bc 3a bf 75 3d
       -0.033288587 0.041702695 -0.009696427 0.05999682
000060 64 5f 59 3d 31 f1 3b bd 15 0e b1 bc 5c ba 7c bc
       0.053069487 -0.045884315 -0.02161316 -0.015425291
000070 a8 01 f1 bc 18 35 a4 ba 60 33 74 bc b2 07 a0 bd
       -0.029419735 -0.001252803 -0.014904827 -0.07813968
000080 df 2a 63 3d b9 37 5d bd 69 28 7a bd 82 7b db 3d
       0.055460807 -0.05400822 -0.061073694 0.107169166
000090 78 41 51 bd d7 80 dc bc cf 12 46 bd 95 32 2c 3d
       -0.051087826 -0.026916904 -0.04835778 0.042040426
0000a0 5c c8 7d bd 9d f4 c0 3c 93 af 95 3d be 4f 81 bd
       -0.061958656 0.02355414 0.07308879 -0.06314038
0000b0 82 5f b1 3c ce a8 5c 3d 45 de d7 3d ae 86 61 bd
       0.021651987 0.053871922 0.105404414 -0.05506008
0000c0 99 02 b7 3c 2e 22 5e bc 43 d7 17 3d f2 c3 46 3d
       0.022340106 -0.013557954 0.037070524 0.04852671
0000d0 eb 9d 1c bc 55 d4 4f 3d f9 33 a2 3d 62 9f b4 3d
       -0.009559135 0.050739605 0.07920069 0.08819462
0000e0 34 9e ad bc 97 45 18 bc a3 08 b8 3d 2b 9a 46 3d
       -0.021193601 -0.009293935 0.08986022 0.04848687
0000f0 d9 40 ce 3c 8c 2a 37 3d cd fe d7 bd 7a c3 44 bd
       0.025177406 0.04471831 -0.10546646 -0.048037983
000100 7d bc 2b bc d7 92 b6 bd 5e ea cd 3d 5c 02 a2 3d
       -0.010481951 -0.08914726 0.100544676 0.07910606
000110 d2 8c 44 bd be 1a 78 3d 93 aa 90 bc d6 f5 d4 3d
       -0.04798586 0.06057238 -0.017659461 0.10398452
000120 86 6f 84 bc 1a e4 18 bd ab 27 ad 3d 42 5c d6 3c
       -0.01616646 -0.03732691 0.08454832 0.026167039
000130 f5 57 d6 bd 99 cb 0d 3d 5d db 09 3d de 28 84 bc
       -0.10465995 0.034617994 0.033656467 -0.016132768
000140 76 29 1f bd ed 3c f7 bc 8e 38 96 bd ab d7 50 bd
       -0.0388579 -0.030180419 -0.07335006 -0.050986927
000150 c5 4a 57 3d 61 17 03 ba a6 37 9d bc d1 4b 8d bd
       0.05256154 -0.0005000737 -0.019191574 -0.068992265
000160 7d 7e 7d bd 1b aa 61 bc 15 3a bc 3c 4a e5 26 bd
       -0.061888207 -0.013773466 0.022976914 -0.04074601
000170 8f 7f ad 3d 03 66 c7 3b d3 9c 6c bd 02 4a ab 3d
       0.084715955 0.006085159 -0.057766747 0.08363725
000180 52 19 a5 3d d6 e9 47 bd 34 c9 84 3c a5 e8 1a 3d
       0.0806147 -0.048806988 0.016209222 0.037819523
000190 cb 73 c7 3d b5 25 ab bd a9 e7 e0 bc 34 9f e5 3c
       0.09738883 -0.083568014 -0.027454214 0.028030016
0001a0 35 79 a6 bc d5 dd bb 3d ce c0 62 3d 5f 06 92 3d
       -0.020321468 0.091731705 0.055359654 0.071301214
0001b0 b6 51 b9 3d da 9c d7 bd 9c fb 8e 3c 5f 0b 49 bc
       0.09048788 -0.10527964 0.017453961 -0.0122707775
0001c0 21 a3 63 3d 0d ce 89 3c 17 8d 94 bd 48 1a 85 3c
       0.055575494 0.016821885 -0.07253473 0.016247883
0001d0 f2 18 d8 bd 05 5c 71 bd d4 cf 15 3d f0 18 d5 bd
       -0.10551633 -0.058925647 0.036575153 -0.10405147
0001e0 77 08 3a bd 69 73 21 3d 25 d9 c0 3c 06 5d 79 bd
       -0.04541823 0.039416704 0.023541043 -0.06087973
0001f0 39 c4 2a bd 2a 6e 13 bd 46 98 9c bd fe 8d 37 bc
       -0.04169104 -0.035993733 -0.07646231 -0.011203287
000200 00 48 33 bd de 18 97 ba d4 1e 1b 3d 11 02 8f 3c
       -0.043769836 -0.0011527797 0.037871197 0.01745704
000210 d0 84 9a bd 37 1c 5f 3c 84 70 be 3d 12 95 d4 3a
       -0.07544863 0.013617567 0.092988044 0.0016218743
000220 65 bc da bc ee fc 36 bd 27 0e 78 3d 4f 60 cc 3d
       -0.026701162 -0.044674806 0.06056037 0.09979307
000230 42 92 94 bd 8a 28 50 bd f6 07 b4 3d e9 4c 48 3d
       -0.07254459 -0.05081991 0.08790581 0.048901472
000240 59 e9 ae bd 73 97 ca bc 40 3b 20 bc b3 69 c1 bc
       -0.08540601 -0.02473042 -0.009779751 -0.023609972
000250 b6 1b b9 3d fc 6f f3 ba 54 67 bb 3d 89 5c 67 3d
       0.090384886 -0.0018572803 0.09150568 0.056484733
000260 e5 8f 87 bd c4 6a 05 bc 45 b8 29 bd a0 2a ab bd
       -0.066192426 -0.008143131 -0.0414355 -0.083577394
000270 2c 41 8f 3d 74 0b c9 bd c7 c5 ff 3b 2f 14 2b bd
       0.069948524 -0.09816638 0.0078055593 -0.041767295
000280 01 2b 4a 3d 16 58 a9 bd ca a3 b4 bd 3d a7 cd bd
       0.049357418 -0.08268754 -0.08820303 -0.10041664
000290 20 87 5e 3d 97 fd fb 3c e0 1b 4a 3c e4 c3 cb b9
       0.054328084 0.03076057 0.0123357475 -0.00038865127
0002a0 14 6f a1 bd 4b 38 01 bd 63 29 c5 3d 26 02 63 bd
       -0.078825146 -0.031547826 0.096270345 -0.05542197
0002b0 d6 50 8b 3d eb b7 8e 3d 5e d2 0f bd 91 65 a1 3c
       0.068025276 0.06968673 -0.03511273 0.019701751
0002c0 6e 14 93 bb 41 c0 f9 3c ec 08 37 bd fe 89 7a 3d
       -0.0044885194 0.030487182 -0.044686243 0.061166756
0002d0 ee d0 22 3d 6a 55 6c bd 33 45 d1 3d 42 e9 78 3c
       0.039750032 -0.057698645 0.10218277 0.015192332
0002e0 56 71 4c bd 25 60 a9 bc ab 6b c2 bc ab 70 1f 3d
       -0.049912773 -0.020675728 -0.02373298 0.038925808
0002f0 76 a4 aa bc b5 d7 a4 3d ed ab b8 bc 03 ec 23 bd
       -0.020830374 0.08048955 -0.022542918 -0.04002
000300 a0 64 82 bd ac 43 d7 3d 2f 49 c6 bb 33 c1 ac bd
       -0.06366849 0.10510954 -0.0060512046 -0.08435287
000310 ef 5c f0 3c fb 39 b2 bc 99 89 06 3d a6 fa d7 3b
       0.02934119 -0.021756163 0.032846067 0.006591159
000320 c2 05 2f bd cd 7e 23 bd 36 88 45 bc 83 0f ba 3d
       -0.0427301 -0.03991585 -0.012056401 0.0908499
000330 ff 6d e3 bc a4 4b 02 bd e2 ed 60 bd 87 1c 88 bd
       -0.027762411 -0.031810418 -0.054914363 -0.06646066
000340 26 d6 7d 3d f5 3a 59 bc d8 62 9c bd 9d 71 94 3d
       0.061971806 -0.013258685 -0.076360404 0.072482325
000350 37 a5 6c bc a1 c7 c3 3b 39 b3 3b bc c6 bc 99 bd
       -0.014443687 0.0059747254 -0.011456304 -0.07506709
000360 36 df 1a 3d a4 ab 29 bd 37 95 44 3c 90 36 af 3d
       0.037810527 -0.041423455 0.011998466 0.08555329
000370 35 cb 7e bd c7 b5 e7 bc 16 01 78 bd 6b 10 98 3d
       -0.062205512 -0.02828492 -0.06054791 0.074250065
000380 24 45 57 bd 75 34 cd bd 3f f1 aa 3d c0 7f b2 bd
       -0.052556172 -0.10019771 0.08346795 -0.08715773
000390 de b2 a8 3d c6 df 11 bd 5c fc a4 bd 52 ae 76 bc
       0.08237241 -0.035613798 -0.08055946 -0.01505621
0003a0 41 66 41 bc 0a f5 77 3d e1 cf a4 bd 54 59 bd bd
       -0.011804164 0.06053642 -0.08047462 -0.092455536
0003b0 23 7d 4f 3d 29 b8 a9 bc 28 a0 1a bc f3 04 ce 3d
       0.05065645 -0.020717697 -0.009437598 0.10059538
0003c0 f6 3b 66 bd 32 cd d3 bc 13 d0 a9 3c 70 b0 b5 bd
       -0.056209527 -0.02585468 0.0207291 -0.088715434
0003d0 23 0a 83 3c 07 08 9a ba d5 49 e5 bb 88 83 31 bd
       0.015996045 -0.001175166 -0.006997327 -0.04333833
0003e0 a7 7a f3 bc 07 c6 75 bd eb 6d 30 3d 06 b9 f8 bb
       -0.029721571 -0.060003307 0.043073576 -0.007590416
0003f0 54 b2 fb 3b 70 50 b3 bd e0 7d d6 bd 67 8f 47 3d
       0.0076811705 -0.087555766 -0.104732275 0.048720744

lstm.weight_hh_l1 f4 [400, 100]
000000 89 58 78 3d 7c c1 8c bd 13 d2 a0 bd 53 a8 73 bd
       0.06063131 -0.06872842 -0.078525685 -0.0594867
000010 63 af 5b 3d cc 04 6d bd 1e 38 a8 bd 6a f6 b9 3d
       0.05363406 -0.057865903 -0.082138285 0.09080203
000020 7d 0d 3c bd 7b fd a6 bc f2 7b b9 3d d2 38 99 3d
       -0.0459113 -0.02038454 0.09056844 0.07481541
000030 bd 7d 64 bd 4c 53 92 bd ef 32 a7 bd 9a e4 f4 bc
       -0.055783976 -0.07144794 -0.08164012 -0.029894162
000040 d7 3d d7 3c e8 b9 68 bd 54 59 92 3a 88 07 ba 3d
       0.026274605 -0.05681792 0.0011165538 0.09083468
000050 26 e3 7a 3d ad 00 71 bd f0 8b 92 bc 48 c6 a6 3d
       0.061251782 -0.058838535 -0.017888993 0.08143288
000060 51 96 86 3d ef 53 a2 bc ca c5 72 3d 69 13 bf 3d
       0.06571639 -0.019815413 0.059270658 0.09329874
000070 af 9c 67 bd 8a 15 cf bd f8 69 0c 3d dc 99 a3 bd
       -0.05654591 -0.1011153 0.034280747 -0.07988331
000080 f2 80 03 bb 53 04 86 bd 44 b7 c5 3c 5b 47 0c 3d
       -0.002006587 -0.065437935 0.02413524 0.034247737
000090 fb cf ba bd 3c 88 f4 3a 25 ad 92 bc b5 86 b6 bd
       -0.091217004 0.0018656324 -0.017904827 -0.08912412
0000a0 64 2b 07 bd b1 98 d6 bd 19 c8 8a bc 6e e5 2e bd
       -0.033000365 -0.10478342 -0.016941117 -0.04269927
0000b0 06 f2 f8 3c 0c 1e 06 bd fb 10 62 3d 2b 1b 2c bd
       0.030388843 -0.0327435 0.055191975 -0.042018097
0000c0 fc df 8b 3d e4 ba 76 3c 31 a5 45 3c 20 fc 12 3d
       0.06829831 0.015059207 0.0120633105 0.035884976
0000d0 49 97 e1 3c cb fd aa bd 98 12 9f 3b a3 76 ac 3d
       0.027537959 -0.083491884 0.0048545115 0.08421066
0000e0 58 57 17 bd 08 8f a4 3d 82 ed 57 3d b4 4c da 3d
       -0.036948532 0.080350935 0.05271674 0.10659161
0000f0 cc a9 c1 bd 82 76 34 3a e5 38 98 3c 07 ed c5 bc
       -0.09456214 0.0006884114 0.018581817 -0.024160875
000100 17 e4 65 bd 2b aa 91 bd d0 2e 11 3c 99 cc 33 bd
       -0.056125727 -0.07112535 0.008861259 -0.04389629
000110 77 9e 8c 3d f8 0f 09 bc cc f8 a0 3b 8d b9 1f bd
       0.06866162 -0.008365624 0.0049124714 -0.038995314
000120 40 7b 08 3d 41 d7 bb bd ae b4 2e bd 8b 9f 2f bb
       0.033320665 -0.09171916 -0.04265278 -0.0026797976
000130 2d 40 76 bd 36 4b 39 bd 80 a5 7e bd 23 df 11 bc
       -0.060119797 -0.045237742 -0.06216955 -0.008903298
000140 0d 3b 8c bc 45 f6 e4 bb b3 ed 50 3d e8 95 4b bd
       -0.017118001 -0.0069873654 0.051007938 -0.04970351
000150 bc 55 33 bd db 39 c3 3d ea ef f7 bb 9b 0f 7d 3d
       -0.043782935 0.095325194 -0.007566442 0.06178246
000160 f6 c7 2d 3c ed 40 a6 bc 13 76 8b 3c 10 dd fb 3c
       0.010606756 -0.02029463 0.017024076 0.03074506
000170 5b fa b4 bd e8 16 10 bd bd 3f 05 bd 43 25 39 bd
       -0.08836814 -0.035178095 -0.03253149 -0.04520155
000180 3a 6b b8 3d 5c d3 40 bd e0 7c c8 bc ee ed 6b bd
       0.09004827 -0.047076568 -0.024473608 -0.057599954
000190 0a 64 c2 bd e9 39 1f bd 8f 33 d1 bc 85 0c 89 3d
       -0.09491737 -0.038873587 -0.02553728 0.06691841
0001a0 5d 05 86 3d ac 14 87 bd 34 9a 9d 3d 2e c1 1c 3d
       0.06543992 -0.0659574 0.076954275 0.038270168
0001b0 d4 f2 9d 3d da ea 19 bc 1b dd 8d 3c a1 b4 b0 3d
       0.077123314 -0.009394372 0.017317345 0.08628202
0001c0 93 e9 04 3d 50 8d 63 bd d1 40 91 3d 7e c9 46 bc
       0.032449316 -0.055554688 0.07092441 -0.012133
0001d0 7f c2 03 bd 32 98 8b bd c7 0b 81 3d 03 8a 8e bd
       -0.032167908 -0.06816138 0.063010745 -0.069599174
0001e0 41 5a b3 bd b9 ed 4f 3d 14 be fe b9 a7 56 42 bc
       -0.08757449 0.05076382 -0.00048588275 -0.01186148
0001f0 ac 20 f9 bb 75 de d4 3d 0e 56 c8 bc 3a 20 94 3d
       -0.0076027717 0.10393993 -0.024455097 0.07232709
000200 0d 06 6f 3d 78 a5 71 3c 48 f4 4a bd 4a 2e a4 3d
       0.05835538 0.0147489235 -0.04954937 0.080166414
000210 30 4c 75 bd 70 4f a7 bb 1e 90 a2 bc aa f4 92 bd
       -0.05988711 -0.0051059052 -0.019844111 -0.07175572
000220 4c 9a 65 bd 45 8c 7a bd 3f 91 bd 3d 1c 0a 0f 3d
       -0.056055352 -0.061168928 0.09256219 0.03492175
000230 01 5e 48 3a 2b f3 1e 3d fc d5 87 bd 8a 18 a0 bd
       0.0007643402 0.03880612 -0.06632611 -0.078171805
000240 9f 83 2d 3d 29 db 6d 3c c2 34 58 bd df 4a d7 3d
       0.04236185 0.014517584 -0.05278469 0.105123274
000250 35 43 16 bd f3 ed 3c 3d 10 ae 3f 3b 88 52 77 bd
       -0.036685187 0.046125364 0.0029248036 -0.060381442
000260 dd 5e b6 bc 19 b0 63 bd 09 1e 90 3d c8 d3 08 3d
       -0.022262031 -0.05558786 0.07036979 0.033405095
000270 a5 0c 8c 3d ac 21 63 3d 7c e0 ad bd 83 06 41 3d
       0.06838349 0.055452034 -0.084900826 0.04712535
000280 38 69 48 3c 47 61 89 bd 3c 11 c7 bd 50 06 b7 bc
       0.012232117 -0.06708007 -0.09720084 -0.022341877
000290 cf 8d 86 bd 88 ae c7 3b d0 1c 5e bd e0 d3 a4 bc
       -0.065700166 0.006093804 -0.054226696 -0.020120561
0002a0 1a 2a 7d bd e4 4e b5 bd 81 8c b1 bc ef fc b6 3d
       -0.06180773 -0.08852938 -0.021673443 0.08934962
0002b0 8d e7 01 bd ff bb ae 3d d4 34 f1 bc 84 1e 3f 3d
       -0.031714965 0.08531951 -0.029444136 0.04665996
0002c0 1c 78 18 bd 97 05 60 3d bf 48 61 3d 94 b5 b7 bd
       -0.03722392 0.05469283 0.055001017 -0.0897018
0002d0 e1 10 97 3b 3a 96 bf bc 29 a1 af 3d 6c 78 cc bd
       0.0046101664 -0.023387063 0.08575661 -0.09983906
0002e0 57 9e 07 bd 31 51 01 3d 30 01 8a bb 08 4b 9d bc
       -0.03310999 0.03157157 -0.0042115673 -0.019200817
0002f0 8b cc 9c bd ae df 78 3d 7d eb fe bc 56 a4 3a 3d
       -0.07656201 0.060760193 -0.031118149 0.04556688
000300 f3 46 78 3c 52 07 f3 3c 08 1a eb bc 13 15 cf bd
       0.015153634 0.029666577 -0.028698936 -0.101114415
000310 3f 0e 97 bd 31 dd a5 3d d0 a7 97 3c 7b d5 70 3d
       -0.07375764 0.080988295 0.018512636 0.05879734
000320 e1 3e ae bd a3 d6 cd 3d 0c b1 dd 3c 87 9f b4 3d
       -0.08508087 0.10050704 0.027061962 0.0881949
000330 df d1 9e 3d 29 7b c8 3d 52 9a 33 bd 99 31 77 bd
       0.077548735 0.09789116 -0.043848343 -0.060350034
000340 34 4b cb 3c 28 8f 82 bd 58 35 bd bc 72 d5 8b 3c
       0.024816133 -0.06374961 -0.023096725 0.017069552
000350 15 e2 02 3b b9 b4 0b 3c b7 d1 b0 bd 55 37 a8 bd
       0.0019971181 0.008526974 -0.0863375 -0.08213679
000360 6f 5e 94 3c 6c f0 e2 bc 0c cc 9f bd a5 5b 91 3d
       0.018111436 -0.027702533 -0.07802591 0.07097558
000370 59 3f 99 bd 48 ba 7b 3d 8c 83 91 3d 94 4e bc 3d
       -0.07482786 0.06145695 0.07105169 0.09194675
000380 d8 58 92 3d bf ea 4a 3d a5 7c 91 bd 89 f0 a8 3d
       0.07145852 0.049540278 -0.07103852 0.082490034
000390 0e 84 35 bd 63 1f 18 3d 9f ea 4a bd 71 6f fb bc
       -0.04431539 0.037139308 -0.04954016 -0.030692788
0003a0 34 4e 9a 3d 29 52 71 3d 16 02 59 bc 02 07 6d 3d
       0.07534447 0.058916245 -0.013245126 0.05786801
0003b0 a9 4b d3 3c dd 42 bf 3d 56 24 8b bd 32 24 f9 3a
       0.025792914 0.09338925 -0.0679404 0.001900798
0003c0 47 ea ac 3d 69 97 59 bd 39 98 8c 3d 43 4d d9 bd
       0.08443122 -0.05312291 0.06864972 -0.1061044
0003d0 e1 83 aa 3c ae d3 a1 bd d8 64 b0 3c 80 80 8c 3d
       0.020814838 -0.07901703 0.021532461 0.06860447
0003e0 60 94 a4 3c 45 33 97 3d d4 75 26 bd 64 ad 1d bd
       0.020090282 0.07382826 -0.040639713 -0.038495436
0003f0 0b 34 5b bc cc f5 03 3d ef 13 80 bb 7d 58 26 3d
       -0.013379107 0.032216832 -0.0039086263 0.040611733

lstm.bias_ih_l1 f4 [400]
000000 88 1c 5f 3d a9 f7 c4 3b b1 e9 d6 3d 6d 6a 92 bd
       0.05447057 0.0060109687 0.10493792 -0.07149205
000010 63 cd ae bd cf 03 4c bd 01 07 74 ba 5f e8 2d 3d
       -0.08535268 -0.04980832 -0.0009308905 0.042457934
000020 3d 6b 95 3d ae 74 97 bd 07 09 0a 3d a5 97 a9 bd
       0.07295845 -0.07395302 0.033700015 -0.08280877
000030 ca c5 1f 3c a0 60 20 3d 37 57 a0 bd c3 9f f7 3b
       0.009751746 0.03915465 -0.07829135 0.007556887
000040 92 aa c3 3d 9b 1d 80 bd 86 3f fc ba 75 8a 90 3d
       0.09554018 -0.06255647 -0.0019245006 0.070576586
000050 de 1d 8c bb 31 2f 21 3b 40 4c c0 3c 86 65 98 3c
       -0.0042760214 0.0024594779 0.023473859 0.018603098
000060 cd 56 ad bd 55 fa 3a bd 50 98 57 3d 02 34 bf bc
       -0.084638216 -0.04564889 0.05263549 -0.023340229
000070 e0 ca a8 3d e9 56 ac bd 7c e9 c6 3c 2a db 90 3d
       0.0824182 -0.08415014 0.024281256 0.07073052
000080 d3 46 a5 bd ea 65 75 bd 61 38 7d bd ca 55 92 3d
       -0.08070149 -0.059911646 -0.061821345 0.07145269
000090 8c 2c 07 3d c8 2f 77 bd fe a0 fd 3c 7c 57 c7 3c
       0.033001468 -0.060348302 0.030960556 0.024333708
0000a0 5f dc 12 bd 20 f8 d9 bc 5a 40 c1 3d 5d 37 80 b9
       -0.035854694 -0.026607573 0.09436102 -0.0002445531
0000b0 10 f6 88 3d 93 98 3f bc 7a ca 9a 3d fa b6 c6 bd
       0.06687558 -0.011694091 0.075581506 -0.09702869
0000c0 4e 26 17 ba e7 e6 51 3c 08 00 4c bd fb 58 a8 bd
       -0.0005765901 0.012811399 -0.049804717 -0.08220097
0000d0 e8 68 e2 bc c7 50 af bc 48 da a7 3d 48 52 20 3d
       -0.027637914 -0.021400822 0.08195931 0.03914097
0000e0 9a e1 89 bd ad 1a 57 3c da 4d 66 3d f8 d7 98 bd
       -0.06732483 0.013128919 0.05622659 -0.07463068
0000f0 db 5d ee bc f4 54 39 3c ba e4 2b bc 32 14 d5 bd
       -0.029097488 0.011311758 -0.010491544 -0.104042426
000100 e5 1d cd bc 7b 84 3e bd 42 12 46 bc a8 e9 39 3d
       -0.025038669 -0.046513062 -0.012089314 0.045388848
000110 b2 6a af bd 96 60 23 bd b6 24 71 bd 8f 43 91 bd
       -0.085652724 -0.039887033 -0.0588729 -0.07092964
000120 b8 be 0c 3c 12 6e c6 bd bd 0d 86 bb e5 de c2 3d
       0.008590393 -0.09688963 -0.004090993 0.0951517
000130 b7 21 80 3d 7a 8c 42 3c 3c 10 97 bd 21 aa c5 3d
       0.062564306 0.011874313 -0.07376143 0.0965159
000140 46 62 8a 3d 8e 0b a9 3d 5e 4c 6f bd 93 14 05 3d
       0.067570254 0.08254157 -0.05842244 0.032490324
000150 28 c1 04 3c 60 d2 32 3d 49 62 bb 3d 3f 26 88 3d
       0.008102693 0.04365766 0.09149606 0.0664792
000160 ef 51 9e bb 3d b7 20 3d 6d e5 9f 3c ea 41 17 bd
       -0.0048315446 0.03923725 0.019518578 -0.036928095
000170 df 97 b7 3d c7 88 f3 bc 53 fd 99 bb 4c 32 26 bc
       0.08964514 -0.029728306 -0.004699388 -0.010143828
000180 d8 19 38 bb 3e 89 a9 3d e8 a2 6e bb d2 06 b8 3d
       -0.0028091576 0.0827813 -0.0036413018 0.08985676
000190 d4 d6 ba bd 12 2b 7f 3d d0 93 aa 3c 51 eb 4b bd
       -0.091230065 0.062296934 0.020822436 -0.049784962
0001a0 07 6e 3a 3c a4 df ad bd b1 34 bd bd 8a 4d 2a 3d
       0.011378772 -0.08489922 -0.09238566 0.041577853
0001b0 c1 96 45 3d 1d f0 d2 3c 3f 22 22 bd cf eb 42 3d
       0.048239473 0.02574926 -0.03958344 0.047588166
0001c0 4a b8 c2 3d 54 0f d5 3d 87 c2 61 bd 0c 17 17 3d
       0.095078066 0.10403314 -0.055117156 0.036887214
0001d0 f9 15 82 bd 29 71 b7 3d 3d 47 bf 3d 5d 27 db 3d
       -0.06351847 0.089571305 0.093397595 0.10700867
0001e0 91 b6 0e bd c1 60 c1 3b 21 3c a7 3d 16 d7 7c bd
       -0.034842078 0.0059014265 0.081657656 -0.06172856
0001f0 62 8c c0 3c 39 a6 2c bd 10 8f a4 3d 91 1d 5e 3d
       0.02350444 -0.04215071 0.080350995 0.054227415
000200 c6 f6 5f 3d 8e b2 95 3d 68 0b 29 3d 91 7d a8 3c
       0.0546787 0.07309447 0.041270643 0.020567687
000210 88 b4 c6 bd d9 a0 14 bd fc f5 32 3d bc 92 6b bd
       -0.09702402 -0.03628621 0.04369162 -0.057512984
000220 8d cf 31 bd a1 8c ca 3d 75 07 39 3c d9 ef 86 3d
       -0.043410826 0.09890104 0.011293282 0.06588716
000230 f3 08 01 3d 01 c2 81 bd f6 cf 73 3d 27 4d 8c bd
       0.031502675 -0.063358314 0.0595245 -0.06850653
000240 0f df 4c 3d 3c c5 98 bd 6a 93 8a bd 3e 6c 5d 3d
       0.050017413 -0.074594945 -0.06766398 0.054058306
000250 c1 2b 6f bd 6c 07 bc bd db 9b 40 bc 0a ae 81 bd
       -0.058391336 -0.09181103 -0.011755909 -0.063320234
000260 8f b2 42 3c 63 0b ab bc e0 84 98 3d 9f 09 7a bc
       0.011883392 -0.020879453 0.07447219 -0.015261083
000270 31 5e 2b 3c 1a 93 48 bd 5a 55 aa 3d 67 7d 19 bb
       0.010459469 -0.048968412 0.08317061 -0.0023420693
000280 db a3 dd bc 1e 20 f3 3c d7 d0 8a 3d 8c 20 39 3d
       -0.027055671 0.0296784 0.06778114 0.045197055
000290 0b a5 cb bc 71 0c a0 3d be 52 9f bd d4 94 bc 3c
       -0.024858972 0.07814873 -0.07779454 0.023020186
0002a0 53 e2 e0 bc 95 10 91 3d 80 3b 9c 3d 08 47 7d bd
       -0.02745167 0.07083241 0.07628536 -0.06183532
0002b0 c3 4d f9 3a 29 a9 c9 bc f7 24 b1 bd 34 de 9e 3c
       0.0019020367 -0.024616795 -0.086496286 0.019393064
0002c0 6b 69 17 3d 94 1a 1b 3c 61 11 17 3d 5c 95 f7 3c
       0.03696577 0.009466786 0.03688181 0.030222587
0002d0 18 51 86 3d 7c 18 29 bd 25 84 93 3c dd b7 a6 bc
       0.06558436 -0.041283116 0.018007347 -0.020351345
0002e0 12 77 20 3b a2 7d a2 bd f9 f9 09 3d 42 63 e8 bc
       0.0024485034 -0.07934119 0.033685658 -0.028367642
0002f0 77 dd 8c 3d f7 41 be bd d8 66 5c bb 50 0f 06 3d
       0.068781786 -0.092899255 -0.0033630636 0.032729447
000300 76 e5 6f 3d 7c 54 1e 3d 77 dc 59 3d 6d 9f c1 3d
       0.05856844 0.03865479 0.053188767 0.09454236
000310 41 c3 05 3d 4c ed c5 bd dc 73 83 bb 4a da 10 3d
       0.03265691 -0.096644014 -0.0040116142 0.035364427
000320 f7 f1 39 bd a8 da d6 3d 39 ad 89 3d e7 bd 0e bc
       -0.04539677 0.10490924 0.06722493 -0.008712268
000330 bb ca 4a bd c7 ca 96 3d be a8 97 bd 5a b4 f0 3c
       -0.049509745 0.073628955 -0.07405232 0.029382873
000340 43 9d a4 3d 23 19 b9 bd b0 d4 99 3d 02 08 6f bc
       0.08037808 -0.090379976 0.0751127 -0.014589312
000350 bc 73 5e 39 77 9a 22 3c d4 b3 40 bd 21 bb 33 3d
       0.00021214684 0.009924523 -0.047046497 0.043879632
000360 b3 42 62 3c 17 38 40 3d 3d 4f 5c 3d f9 fe 68 bd
       0.013809848 0.04692849 0.053786505 -0.056883786
000370 72 be a1 bd c4 53 4f bd 56 dd 67 3d cc aa 12 bd
       -0.07897653 -0.050616995 0.056607567 -0.035807416
000380 00 e2 e7 bb da 8f 2c 3d 96 19 29 bd 77 d8 be bc
       -0.007076502 0.042129375 -0.041284166 -0.023296578
000390 b9 6a 1d bd fa 35 c8 3d 30 4f d0 bd a1 c6 cc bd
       -0.038431857 0.0977592 -0.10171354 -0.09998823
0003a0 0c 92 af bd a4 4c de bc 49 66 77 ba a6 46 1f 3d
       -0.08572778 -0.027136154 -0.0009437544 0.038885735
0003b0 32 99 27 3d b9 69 b0 3d 3b 18 a2 3d d9 b6 80 bd
       0.040917583 0.08613915 0.07914778 -0.062848754
0003c0 70 33 c7 39 d3 ae 8a bd 70 36 68 bd 5a 62 d8 bc
       0.00037994562 -0.06771626 -0.05669254 -0.026414085
0003d0 c6 7a 82 3d 0f cf b8 bd 79 de 7f 3b dc 6c 4e 3d
       0.063710734 -0.09023868 0.0039042516 0.050396785
0003e0 50 7c 04 bd 8a d2 93 bd 88 28 8e 3d 40 c5 bf bd
       -0.032345116 -0.072178915 0.069413245 -0.09363794
0003f0 16 eb a3 bd f0 fb 63 bd 33 f3 82 3d 26 a5 9b bd
       -0.080038235 -0.05566019 0.06394043 -0.07599859
